node {
  name: "load_images/input_producer/Const"
  op: "Const"
  attr {
    key: "_output_shapes"
    value {
      list {
        shape {
          dim {
            size: 95
          }
        }
      }
    }
  }
  attr {
    key: "dtype"
    value {
      type: DT_STRING
    }
  }
  attr {
    key: "value"
    value {
      tensor {
        dtype: DT_STRING
        tensor_shape {
          dim {
            size: 95
          }
        }
        string_val: "data/dog_0000.png"
        string_val: "data/dog_0001.png"
        string_val: "data/dog_0002.png"
        string_val: "data/dog_0003.png"
        string_val: "data/dog_0005.png"
        string_val: "data/dog_0006.png"
        string_val: "data/dog_0007.png"
        string_val: "data/dog_0008.png"
        string_val: "data/dog_0009.png"
        string_val: "data/dog_0011.png"
        string_val: "data/dog_0012.png"
        string_val: "data/dog_0013.png"
        string_val: "data/dog_0014.png"
        string_val: "data/dog_0015.png"
        string_val: "data/dog_0016.png"
        string_val: "data/dog_0017.png"
        string_val: "data/dog_0018.png"
        string_val: "data/dog_0019.png"
        string_val: "data/dog_0020.png"
        string_val: "data/dog_0023.png"
        string_val: "data/dog_0024.png"
        string_val: "data/dog_0025.png"
        string_val: "data/dog_0026.png"
        string_val: "data/dog_0027.png"
        string_val: "data/dog_0028.png"
        string_val: "data/dog_0029.png"
        string_val: "data/dog_0030.png"
        string_val: "data/dog_0031.png"
        string_val: "data/dog_0032.png"
        string_val: "data/dog_0034.png"
        string_val: "data/dog_0036.png"
        string_val: "data/dog_0037.png"
        string_val: "data/dog_0038.png"
        string_val: "data/dog_0039.png"
        string_val: "data/dog_0040.png"
        string_val: "data/dog_0042.png"
        string_val: "data/dog_0043.png"
        string_val: "data/dog_0044.png"
        string_val: "data/dog_0045.png"
        string_val: "data/dog_0046.png"
        string_val: "data/dog_0047.png"
        string_val: "data/dog_0048.png"
        string_val: "data/dog_0049.png"
        string_val: "data/dog_0050.png"
        string_val: "data/dog_0051.png"
        string_val: "data/dog_0052.png"
        string_val: "data/dog_0053.png"
        string_val: "data/dog_0054.png"
        string_val: "data/dog_0055.png"
        string_val: "data/dog_0056.png"
        string_val: "data/dog_0059.png"
        string_val: "data/dog_0060.png"
        string_val: "data/dog_0062.png"
        string_val: "data/dog_0063.png"
        string_val: "data/dog_0065.png"
        string_val: "data/dog_0066.png"
        string_val: "data/dog_0067.png"
        string_val: "data/dog_0068.png"
        string_val: "data/dog_0069.png"
        string_val: "data/dog_0070.png"
        string_val: "data/dog_0071.png"
        string_val: "data/dog_0073.png"
        string_val: "data/dog_0074.png"
        string_val: "data/dog_0075.png"
        string_val: "data/dog_0076.png"
        string_val: "data/dog_0077.png"
        string_val: "data/dog_0078.png"
        string_val: "data/dog_0079.png"
        string_val: "data/dog_0080.png"
        string_val: "data/dog_0082.png"
        string_val: "data/dog_0083.png"
        string_val: "data/dog_0084.png"
        string_val: "data/dog_0085.png"
        string_val: "data/dog_0086.png"
        string_val: "data/dog_0087.png"
        string_val: "data/dog_0088.png"
        string_val: "data/dog_0089.png"
        string_val: "data/dog_0090.png"
        string_val: "data/dog_0092.png"
        string_val: "data/dog_0093.png"
        string_val: "data/dog_0094.png"
        string_val: "data/dog_0095.png"
        string_val: "data/dog_0096.png"
        string_val: "data/dog_0097.png"
        string_val: "data/dog_0099.png"
        string_val: "data/dog_0100.png"
        string_val: "data/dog_0101.png"
        string_val: "data/dog_0102.png"
        string_val: "data/dog_0103.png"
        string_val: "data/dog_0104.png"
        string_val: "data/dog_0105.png"
        string_val: "data/dog_0106.png"
        string_val: "data/dog_0107.png"
        string_val: "data/dog_0108.png"
        string_val: "data/dog_0109.png"
      }
    }
  }
}
node {
  name: "load_images/input_producer/Size"
  op: "Const"
  attr {
    key: "_output_shapes"
    value {
      list {
        shape {
        }
      }
    }
  }
  attr {
    key: "dtype"
    value {
      type: DT_INT32
    }
  }
  attr {
    key: "value"
    value {
      tensor {
        dtype: DT_INT32
        tensor_shape {
        }
        int_val: 95
      }
    }
  }
}
node {
  name: "load_images/input_producer/Greater/y"
  op: "Const"
  attr {
    key: "_output_shapes"
    value {
      list {
        shape {
        }
      }
    }
  }
  attr {
    key: "dtype"
    value {
      type: DT_INT32
    }
  }
  attr {
    key: "value"
    value {
      tensor {
        dtype: DT_INT32
        tensor_shape {
        }
        int_val: 0
      }
    }
  }
}
node {
  name: "load_images/input_producer/Greater"
  op: "Greater"
  input: "load_images/input_producer/Size"
  input: "load_images/input_producer/Greater/y"
  attr {
    key: "T"
    value {
      type: DT_INT32
    }
  }
  attr {
    key: "_output_shapes"
    value {
      list {
        shape {
        }
      }
    }
  }
}
node {
  name: "load_images/input_producer/Assert/Const"
  op: "Const"
  attr {
    key: "_output_shapes"
    value {
      list {
        shape {
        }
      }
    }
  }
  attr {
    key: "dtype"
    value {
      type: DT_STRING
    }
  }
  attr {
    key: "value"
    value {
      tensor {
        dtype: DT_STRING
        tensor_shape {
        }
        string_val: "string_input_producer requires a non-null input tensor"
      }
    }
  }
}
node {
  name: "load_images/input_producer/Assert/Assert/data_0"
  op: "Const"
  attr {
    key: "_output_shapes"
    value {
      list {
        shape {
        }
      }
    }
  }
  attr {
    key: "dtype"
    value {
      type: DT_STRING
    }
  }
  attr {
    key: "value"
    value {
      tensor {
        dtype: DT_STRING
        tensor_shape {
        }
        string_val: "string_input_producer requires a non-null input tensor"
      }
    }
  }
}
node {
  name: "load_images/input_producer/Assert/Assert"
  op: "Assert"
  input: "load_images/input_producer/Greater"
  input: "load_images/input_producer/Assert/Assert/data_0"
  attr {
    key: "T"
    value {
      list {
        type: DT_STRING
      }
    }
  }
  attr {
    key: "summarize"
    value {
      i: 3
    }
  }
}
node {
  name: "load_images/input_producer/Identity"
  op: "Identity"
  input: "load_images/input_producer/Const"
  input: "^load_images/input_producer/Assert/Assert"
  attr {
    key: "T"
    value {
      type: DT_STRING
    }
  }
  attr {
    key: "_output_shapes"
    value {
      list {
        shape {
          dim {
            size: 95
          }
        }
      }
    }
  }
}
node {
  name: "load_images/input_producer/RandomShuffle"
  op: "RandomShuffle"
  input: "load_images/input_producer/Identity"
  attr {
    key: "T"
    value {
      type: DT_STRING
    }
  }
  attr {
    key: "_output_shapes"
    value {
      list {
        shape {
          dim {
            size: 95
          }
        }
      }
    }
  }
  attr {
    key: "seed"
    value {
      i: 855892254
    }
  }
  attr {
    key: "seed2"
    value {
      i: 8
    }
  }
}
node {
  name: "load_images/input_producer"
  op: "FIFOQueueV2"
  attr {
    key: "_output_shapes"
    value {
      list {
        shape {
        }
      }
    }
  }
  attr {
    key: "capacity"
    value {
      i: 32
    }
  }
  attr {
    key: "component_types"
    value {
      list {
        type: DT_STRING
      }
    }
  }
  attr {
    key: "container"
    value {
      s: ""
    }
  }
  attr {
    key: "shapes"
    value {
      list {
        shape {
        }
      }
    }
  }
  attr {
    key: "shared_name"
    value {
      s: ""
    }
  }
}
node {
  name: "load_images/input_producer/input_producer_EnqueueMany"
  op: "QueueEnqueueManyV2"
  input: "load_images/input_producer"
  input: "load_images/input_producer/RandomShuffle"
  attr {
    key: "Tcomponents"
    value {
      list {
        type: DT_STRING
      }
    }
  }
  attr {
    key: "timeout_ms"
    value {
      i: -1
    }
  }
}
node {
  name: "load_images/input_producer/input_producer_Close"
  op: "QueueCloseV2"
  input: "load_images/input_producer"
  attr {
    key: "cancel_pending_enqueues"
    value {
      b: false
    }
  }
}
node {
  name: "load_images/input_producer/input_producer_Close_1"
  op: "QueueCloseV2"
  input: "load_images/input_producer"
  attr {
    key: "cancel_pending_enqueues"
    value {
      b: true
    }
  }
}
node {
  name: "load_images/input_producer/input_producer_Size"
  op: "QueueSizeV2"
  input: "load_images/input_producer"
  attr {
    key: "_output_shapes"
    value {
      list {
        shape {
        }
      }
    }
  }
}
node {
  name: "load_images/input_producer/ToFloat"
  op: "Cast"
  input: "load_images/input_producer/input_producer_Size"
  attr {
    key: "DstT"
    value {
      type: DT_FLOAT
    }
  }
  attr {
    key: "SrcT"
    value {
      type: DT_INT32
    }
  }
  attr {
    key: "_output_shapes"
    value {
      list {
        shape {
        }
      }
    }
  }
}
node {
  name: "load_images/input_producer/mul/y"
  op: "Const"
  attr {
    key: "_output_shapes"
    value {
      list {
        shape {
        }
      }
    }
  }
  attr {
    key: "dtype"
    value {
      type: DT_FLOAT
    }
  }
  attr {
    key: "value"
    value {
      tensor {
        dtype: DT_FLOAT
        tensor_shape {
        }
        float_val: 0.03125
      }
    }
  }
}
node {
  name: "load_images/input_producer/mul"
  op: "Mul"
  input: "load_images/input_producer/ToFloat"
  input: "load_images/input_producer/mul/y"
  attr {
    key: "T"
    value {
      type: DT_FLOAT
    }
  }
  attr {
    key: "_output_shapes"
    value {
      list {
        shape {
        }
      }
    }
  }
}
node {
  name: "load_images/input_producer/fraction_of_32_full/tags"
  op: "Const"
  attr {
    key: "_output_shapes"
    value {
      list {
        shape {
        }
      }
    }
  }
  attr {
    key: "dtype"
    value {
      type: DT_STRING
    }
  }
  attr {
    key: "value"
    value {
      tensor {
        dtype: DT_STRING
        tensor_shape {
        }
        string_val: "load_images/input_producer/fraction_of_32_full"
      }
    }
  }
}
node {
  name: "load_images/input_producer/fraction_of_32_full"
  op: "ScalarSummary"
  input: "load_images/input_producer/fraction_of_32_full/tags"
  input: "load_images/input_producer/mul"
  attr {
    key: "T"
    value {
      type: DT_FLOAT
    }
  }
  attr {
    key: "_output_shapes"
    value {
      list {
        shape {
        }
      }
    }
  }
}
node {
  name: "load_images/WholeFileReaderV2"
  op: "WholeFileReaderV2"
  attr {
    key: "_output_shapes"
    value {
      list {
        shape {
        }
      }
    }
  }
  attr {
    key: "container"
    value {
      s: ""
    }
  }
  attr {
    key: "shared_name"
    value {
      s: ""
    }
  }
}
node {
  name: "load_images/ReaderReadV2"
  op: "ReaderReadV2"
  input: "load_images/WholeFileReaderV2"
  input: "load_images/input_producer"
  attr {
    key: "_output_shapes"
    value {
      list {
        shape {
        }
        shape {
        }
      }
    }
  }
}
node {
  name: "load_images/DecodePng"
  op: "DecodePng"
  input: "load_images/ReaderReadV2:1"
  attr {
    key: "_output_shapes"
    value {
      list {
        shape {
          dim {
            size: -1
          }
          dim {
            size: -1
          }
          dim {
            size: -1
          }
        }
      }
    }
  }
  attr {
    key: "channels"
    value {
      i: 0
    }
  }
  attr {
    key: "dtype"
    value {
      type: DT_UINT8
    }
  }
}
node {
  name: "load_images/convert_image/Cast"
  op: "Cast"
  input: "load_images/DecodePng"
  attr {
    key: "DstT"
    value {
      type: DT_FLOAT
    }
  }
  attr {
    key: "SrcT"
    value {
      type: DT_UINT8
    }
  }
  attr {
    key: "_output_shapes"
    value {
      list {
        shape {
          dim {
            size: -1
          }
          dim {
            size: -1
          }
          dim {
            size: -1
          }
        }
      }
    }
  }
}
node {
  name: "load_images/convert_image/y"
  op: "Const"
  attr {
    key: "_output_shapes"
    value {
      list {
        shape {
        }
      }
    }
  }
  attr {
    key: "dtype"
    value {
      type: DT_FLOAT
    }
  }
  attr {
    key: "value"
    value {
      tensor {
        dtype: DT_FLOAT
        tensor_shape {
        }
        float_val: 0.003921568859368563
      }
    }
  }
}
node {
  name: "load_images/convert_image"
  op: "Mul"
  input: "load_images/convert_image/Cast"
  input: "load_images/convert_image/y"
  attr {
    key: "T"
    value {
      type: DT_FLOAT
    }
  }
  attr {
    key: "_output_shapes"
    value {
      list {
        shape {
          dim {
            size: -1
          }
          dim {
            size: -1
          }
          dim {
            size: -1
          }
        }
      }
    }
  }
}
node {
  name: "load_images/Shape"
  op: "Shape"
  input: "load_images/convert_image"
  attr {
    key: "T"
    value {
      type: DT_FLOAT
    }
  }
  attr {
    key: "_output_shapes"
    value {
      list {
        shape {
          dim {
            size: 3
          }
        }
      }
    }
  }
  attr {
    key: "out_type"
    value {
      type: DT_INT32
    }
  }
}
node {
  name: "load_images/strided_slice/stack"
  op: "Const"
  attr {
    key: "_output_shapes"
    value {
      list {
        shape {
          dim {
            size: 1
          }
        }
      }
    }
  }
  attr {
    key: "dtype"
    value {
      type: DT_INT32
    }
  }
  attr {
    key: "value"
    value {
      tensor {
        dtype: DT_INT32
        tensor_shape {
          dim {
            size: 1
          }
        }
        int_val: 2
      }
    }
  }
}
node {
  name: "load_images/strided_slice/stack_1"
  op: "Const"
  attr {
    key: "_output_shapes"
    value {
      list {
        shape {
          dim {
            size: 1
          }
        }
      }
    }
  }
  attr {
    key: "dtype"
    value {
      type: DT_INT32
    }
  }
  attr {
    key: "value"
    value {
      tensor {
        dtype: DT_INT32
        tensor_shape {
          dim {
            size: 1
          }
        }
        int_val: 3
      }
    }
  }
}
node {
  name: "load_images/strided_slice/stack_2"
  op: "Const"
  attr {
    key: "_output_shapes"
    value {
      list {
        shape {
          dim {
            size: 1
          }
        }
      }
    }
  }
  attr {
    key: "dtype"
    value {
      type: DT_INT32
    }
  }
  attr {
    key: "value"
    value {
      tensor {
        dtype: DT_INT32
        tensor_shape {
          dim {
            size: 1
          }
        }
        int_val: 1
      }
    }
  }
}
node {
  name: "load_images/strided_slice"
  op: "StridedSlice"
  input: "load_images/Shape"
  input: "load_images/strided_slice/stack"
  input: "load_images/strided_slice/stack_1"
  input: "load_images/strided_slice/stack_2"
  attr {
    key: "Index"
    value {
      type: DT_INT32
    }
  }
  attr {
    key: "T"
    value {
      type: DT_INT32
    }
  }
  attr {
    key: "_output_shapes"
    value {
      list {
        shape {
        }
      }
    }
  }
  attr {
    key: "begin_mask"
    value {
      i: 0
    }
  }
  attr {
    key: "ellipsis_mask"
    value {
      i: 0
    }
  }
  attr {
    key: "end_mask"
    value {
      i: 0
    }
  }
  attr {
    key: "new_axis_mask"
    value {
      i: 0
    }
  }
  attr {
    key: "shrink_axis_mask"
    value {
      i: 1
    }
  }
}
node {
  name: "load_images/assert_equal/y"
  op: "Const"
  attr {
    key: "_output_shapes"
    value {
      list {
        shape {
        }
      }
    }
  }
  attr {
    key: "dtype"
    value {
      type: DT_INT32
    }
  }
  attr {
    key: "value"
    value {
      tensor {
        dtype: DT_INT32
        tensor_shape {
        }
        int_val: 3
      }
    }
  }
}
node {
  name: "load_images/assert_equal/Equal"
  op: "Equal"
  input: "load_images/strided_slice"
  input: "load_images/assert_equal/y"
  attr {
    key: "T"
    value {
      type: DT_INT32
    }
  }
  attr {
    key: "_output_shapes"
    value {
      list {
        shape {
        }
      }
    }
  }
}
node {
  name: "load_images/assert_equal/Const"
  op: "Const"
  attr {
    key: "_output_shapes"
    value {
      list {
        shape {
          dim {
          }
        }
      }
    }
  }
  attr {
    key: "dtype"
    value {
      type: DT_INT32
    }
  }
  attr {
    key: "value"
    value {
      tensor {
        dtype: DT_INT32
        tensor_shape {
          dim {
          }
        }
      }
    }
  }
}
node {
  name: "load_images/assert_equal/All"
  op: "All"
  input: "load_images/assert_equal/Equal"
  input: "load_images/assert_equal/Const"
  attr {
    key: "Tidx"
    value {
      type: DT_INT32
    }
  }
  attr {
    key: "_output_shapes"
    value {
      list {
        shape {
        }
      }
    }
  }
  attr {
    key: "keep_dims"
    value {
      b: false
    }
  }
}
node {
  name: "load_images/assert_equal/Assert/Const"
  op: "Const"
  attr {
    key: "_output_shapes"
    value {
      list {
        shape {
        }
      }
    }
  }
  attr {
    key: "dtype"
    value {
      type: DT_STRING
    }
  }
  attr {
    key: "value"
    value {
      tensor {
        dtype: DT_STRING
        tensor_shape {
        }
        string_val: "image does not have 3 channels"
      }
    }
  }
}
node {
  name: "load_images/assert_equal/Assert/Const_1"
  op: "Const"
  attr {
    key: "_output_shapes"
    value {
      list {
        shape {
        }
      }
    }
  }
  attr {
    key: "dtype"
    value {
      type: DT_STRING
    }
  }
  attr {
    key: "value"
    value {
      tensor {
        dtype: DT_STRING
        tensor_shape {
        }
        string_val: "Condition x == y did not hold element-wise:"
      }
    }
  }
}
node {
  name: "load_images/assert_equal/Assert/Const_2"
  op: "Const"
  attr {
    key: "_output_shapes"
    value {
      list {
        shape {
        }
      }
    }
  }
  attr {
    key: "dtype"
    value {
      type: DT_STRING
    }
  }
  attr {
    key: "value"
    value {
      tensor {
        dtype: DT_STRING
        tensor_shape {
        }
        string_val: "x (load_images/strided_slice:0) = "
      }
    }
  }
}
node {
  name: "load_images/assert_equal/Assert/Const_3"
  op: "Const"
  attr {
    key: "_output_shapes"
    value {
      list {
        shape {
        }
      }
    }
  }
  attr {
    key: "dtype"
    value {
      type: DT_STRING
    }
  }
  attr {
    key: "value"
    value {
      tensor {
        dtype: DT_STRING
        tensor_shape {
        }
        string_val: "y (load_images/assert_equal/y:0) = "
      }
    }
  }
}
node {
  name: "load_images/assert_equal/Assert/Assert/data_0"
  op: "Const"
  attr {
    key: "_output_shapes"
    value {
      list {
        shape {
        }
      }
    }
  }
  attr {
    key: "dtype"
    value {
      type: DT_STRING
    }
  }
  attr {
    key: "value"
    value {
      tensor {
        dtype: DT_STRING
        tensor_shape {
        }
        string_val: "image does not have 3 channels"
      }
    }
  }
}
node {
  name: "load_images/assert_equal/Assert/Assert/data_1"
  op: "Const"
  attr {
    key: "_output_shapes"
    value {
      list {
        shape {
        }
      }
    }
  }
  attr {
    key: "dtype"
    value {
      type: DT_STRING
    }
  }
  attr {
    key: "value"
    value {
      tensor {
        dtype: DT_STRING
        tensor_shape {
        }
        string_val: "Condition x == y did not hold element-wise:"
      }
    }
  }
}
node {
  name: "load_images/assert_equal/Assert/Assert/data_2"
  op: "Const"
  attr {
    key: "_output_shapes"
    value {
      list {
        shape {
        }
      }
    }
  }
  attr {
    key: "dtype"
    value {
      type: DT_STRING
    }
  }
  attr {
    key: "value"
    value {
      tensor {
        dtype: DT_STRING
        tensor_shape {
        }
        string_val: "x (load_images/strided_slice:0) = "
      }
    }
  }
}
node {
  name: "load_images/assert_equal/Assert/Assert/data_4"
  op: "Const"
  attr {
    key: "_output_shapes"
    value {
      list {
        shape {
        }
      }
    }
  }
  attr {
    key: "dtype"
    value {
      type: DT_STRING
    }
  }
  attr {
    key: "value"
    value {
      tensor {
        dtype: DT_STRING
        tensor_shape {
        }
        string_val: "y (load_images/assert_equal/y:0) = "
      }
    }
  }
}
node {
  name: "load_images/assert_equal/Assert/Assert"
  op: "Assert"
  input: "load_images/assert_equal/All"
  input: "load_images/assert_equal/Assert/Assert/data_0"
  input: "load_images/assert_equal/Assert/Assert/data_1"
  input: "load_images/assert_equal/Assert/Assert/data_2"
  input: "load_images/strided_slice"
  input: "load_images/assert_equal/Assert/Assert/data_4"
  input: "load_images/assert_equal/y"
  attr {
    key: "T"
    value {
      list {
        type: DT_STRING
        type: DT_STRING
        type: DT_STRING
        type: DT_INT32
        type: DT_STRING
        type: DT_INT32
      }
    }
  }
  attr {
    key: "summarize"
    value {
      i: 3
    }
  }
}
node {
  name: "load_images/Identity"
  op: "Identity"
  input: "load_images/convert_image"
  input: "^load_images/assert_equal/Assert/Assert"
  attr {
    key: "T"
    value {
      type: DT_FLOAT
    }
  }
  attr {
    key: "_output_shapes"
    value {
      list {
        shape {
          dim {
            size: -1
          }
          dim {
            size: -1
          }
          dim {
            size: 3
          }
        }
      }
    }
  }
}
node {
  name: "load_images/Shape_1"
  op: "Shape"
  input: "load_images/Identity"
  attr {
    key: "T"
    value {
      type: DT_FLOAT
    }
  }
  attr {
    key: "_output_shapes"
    value {
      list {
        shape {
          dim {
            size: 3
          }
        }
      }
    }
  }
  attr {
    key: "out_type"
    value {
      type: DT_INT32
    }
  }
}
node {
  name: "load_images/strided_slice_1/stack"
  op: "Const"
  attr {
    key: "_output_shapes"
    value {
      list {
        shape {
          dim {
            size: 1
          }
        }
      }
    }
  }
  attr {
    key: "dtype"
    value {
      type: DT_INT32
    }
  }
  attr {
    key: "value"
    value {
      tensor {
        dtype: DT_INT32
        tensor_shape {
          dim {
            size: 1
          }
        }
        int_val: 1
      }
    }
  }
}
node {
  name: "load_images/strided_slice_1/stack_1"
  op: "Const"
  attr {
    key: "_output_shapes"
    value {
      list {
        shape {
          dim {
            size: 1
          }
        }
      }
    }
  }
  attr {
    key: "dtype"
    value {
      type: DT_INT32
    }
  }
  attr {
    key: "value"
    value {
      tensor {
        dtype: DT_INT32
        tensor_shape {
          dim {
            size: 1
          }
        }
        int_val: 2
      }
    }
  }
}
node {
  name: "load_images/strided_slice_1/stack_2"
  op: "Const"
  attr {
    key: "_output_shapes"
    value {
      list {
        shape {
          dim {
            size: 1
          }
        }
      }
    }
  }
  attr {
    key: "dtype"
    value {
      type: DT_INT32
    }
  }
  attr {
    key: "value"
    value {
      tensor {
        dtype: DT_INT32
        tensor_shape {
          dim {
            size: 1
          }
        }
        int_val: 1
      }
    }
  }
}
node {
  name: "load_images/strided_slice_1"
  op: "StridedSlice"
  input: "load_images/Shape_1"
  input: "load_images/strided_slice_1/stack"
  input: "load_images/strided_slice_1/stack_1"
  input: "load_images/strided_slice_1/stack_2"
  attr {
    key: "Index"
    value {
      type: DT_INT32
    }
  }
  attr {
    key: "T"
    value {
      type: DT_INT32
    }
  }
  attr {
    key: "_output_shapes"
    value {
      list {
        shape {
        }
      }
    }
  }
  attr {
    key: "begin_mask"
    value {
      i: 0
    }
  }
  attr {
    key: "ellipsis_mask"
    value {
      i: 0
    }
  }
  attr {
    key: "end_mask"
    value {
      i: 0
    }
  }
  attr {
    key: "new_axis_mask"
    value {
      i: 0
    }
  }
  attr {
    key: "shrink_axis_mask"
    value {
      i: 1
    }
  }
}
node {
  name: "load_images/floordiv/y"
  op: "Const"
  attr {
    key: "_output_shapes"
    value {
      list {
        shape {
        }
      }
    }
  }
  attr {
    key: "dtype"
    value {
      type: DT_INT32
    }
  }
  attr {
    key: "value"
    value {
      tensor {
        dtype: DT_INT32
        tensor_shape {
        }
        int_val: 2
      }
    }
  }
}
node {
  name: "load_images/floordiv"
  op: "FloorDiv"
  input: "load_images/strided_slice_1"
  input: "load_images/floordiv/y"
  attr {
    key: "T"
    value {
      type: DT_INT32
    }
  }
  attr {
    key: "_output_shapes"
    value {
      list {
        shape {
        }
      }
    }
  }
}
node {
  name: "load_images/strided_slice_2/stack"
  op: "Const"
  attr {
    key: "_output_shapes"
    value {
      list {
        shape {
          dim {
            size: 3
          }
        }
      }
    }
  }
  attr {
    key: "dtype"
    value {
      type: DT_INT32
    }
  }
  attr {
    key: "value"
    value {
      tensor {
        dtype: DT_INT32
        tensor_shape {
          dim {
            size: 3
          }
        }
        tensor_content: "\000\000\000\000\000\000\000\000\000\000\000\000"
      }
    }
  }
}
node {
  name: "load_images/strided_slice_2/stack_1/0"
  op: "Const"
  attr {
    key: "_output_shapes"
    value {
      list {
        shape {
        }
      }
    }
  }
  attr {
    key: "dtype"
    value {
      type: DT_INT32
    }
  }
  attr {
    key: "value"
    value {
      tensor {
        dtype: DT_INT32
        tensor_shape {
        }
        int_val: 0
      }
    }
  }
}
node {
  name: "load_images/strided_slice_2/stack_1/2"
  op: "Const"
  attr {
    key: "_output_shapes"
    value {
      list {
        shape {
        }
      }
    }
  }
  attr {
    key: "dtype"
    value {
      type: DT_INT32
    }
  }
  attr {
    key: "value"
    value {
      tensor {
        dtype: DT_INT32
        tensor_shape {
        }
        int_val: 0
      }
    }
  }
}
node {
  name: "load_images/strided_slice_2/stack_1"
  op: "Pack"
  input: "load_images/strided_slice_2/stack_1/0"
  input: "load_images/floordiv"
  input: "load_images/strided_slice_2/stack_1/2"
  attr {
    key: "N"
    value {
      i: 3
    }
  }
  attr {
    key: "T"
    value {
      type: DT_INT32
    }
  }
  attr {
    key: "_output_shapes"
    value {
      list {
        shape {
          dim {
            size: 3
          }
        }
      }
    }
  }
  attr {
    key: "axis"
    value {
      i: 0
    }
  }
}
node {
  name: "load_images/strided_slice_2/stack_2"
  op: "Const"
  attr {
    key: "_output_shapes"
    value {
      list {
        shape {
          dim {
            size: 3
          }
        }
      }
    }
  }
  attr {
    key: "dtype"
    value {
      type: DT_INT32
    }
  }
  attr {
    key: "value"
    value {
      tensor {
        dtype: DT_INT32
        tensor_shape {
          dim {
            size: 3
          }
        }
        tensor_content: "\001\000\000\000\001\000\000\000\001\000\000\000"
      }
    }
  }
}
node {
  name: "load_images/strided_slice_2"
  op: "StridedSlice"
  input: "load_images/Identity"
  input: "load_images/strided_slice_2/stack"
  input: "load_images/strided_slice_2/stack_1"
  input: "load_images/strided_slice_2/stack_2"
  attr {
    key: "Index"
    value {
      type: DT_INT32
    }
  }
  attr {
    key: "T"
    value {
      type: DT_FLOAT
    }
  }
  attr {
    key: "_output_shapes"
    value {
      list {
        shape {
          dim {
            size: -1
          }
          dim {
            size: -1
          }
          dim {
            size: 3
          }
        }
      }
    }
  }
  attr {
    key: "begin_mask"
    value {
      i: 7
    }
  }
  attr {
    key: "ellipsis_mask"
    value {
      i: 0
    }
  }
  attr {
    key: "end_mask"
    value {
      i: 5
    }
  }
  attr {
    key: "new_axis_mask"
    value {
      i: 0
    }
  }
  attr {
    key: "shrink_axis_mask"
    value {
      i: 0
    }
  }
}
node {
  name: "load_images/preprocess/mul/y"
  op: "Const"
  attr {
    key: "_output_shapes"
    value {
      list {
        shape {
        }
      }
    }
  }
  attr {
    key: "dtype"
    value {
      type: DT_FLOAT
    }
  }
  attr {
    key: "value"
    value {
      tensor {
        dtype: DT_FLOAT
        tensor_shape {
        }
        float_val: 2.0
      }
    }
  }
}
node {
  name: "load_images/preprocess/mul"
  op: "Mul"
  input: "load_images/strided_slice_2"
  input: "load_images/preprocess/mul/y"
  attr {
    key: "T"
    value {
      type: DT_FLOAT
    }
  }
  attr {
    key: "_output_shapes"
    value {
      list {
        shape {
          dim {
            size: -1
          }
          dim {
            size: -1
          }
          dim {
            size: 3
          }
        }
      }
    }
  }
}
node {
  name: "load_images/preprocess/sub/y"
  op: "Const"
  attr {
    key: "_output_shapes"
    value {
      list {
        shape {
        }
      }
    }
  }
  attr {
    key: "dtype"
    value {
      type: DT_FLOAT
    }
  }
  attr {
    key: "value"
    value {
      tensor {
        dtype: DT_FLOAT
        tensor_shape {
        }
        float_val: 1.0
      }
    }
  }
}
node {
  name: "load_images/preprocess/sub"
  op: "Sub"
  input: "load_images/preprocess/mul"
  input: "load_images/preprocess/sub/y"
  attr {
    key: "T"
    value {
      type: DT_FLOAT
    }
  }
  attr {
    key: "_output_shapes"
    value {
      list {
        shape {
          dim {
            size: -1
          }
          dim {
            size: -1
          }
          dim {
            size: 3
          }
        }
      }
    }
  }
}
node {
  name: "load_images/floordiv_1/y"
  op: "Const"
  attr {
    key: "_output_shapes"
    value {
      list {
        shape {
        }
      }
    }
  }
  attr {
    key: "dtype"
    value {
      type: DT_INT32
    }
  }
  attr {
    key: "value"
    value {
      tensor {
        dtype: DT_INT32
        tensor_shape {
        }
        int_val: 2
      }
    }
  }
}
node {
  name: "load_images/floordiv_1"
  op: "FloorDiv"
  input: "load_images/strided_slice_1"
  input: "load_images/floordiv_1/y"
  attr {
    key: "T"
    value {
      type: DT_INT32
    }
  }
  attr {
    key: "_output_shapes"
    value {
      list {
        shape {
        }
      }
    }
  }
}
node {
  name: "load_images/strided_slice_3/stack/0"
  op: "Const"
  attr {
    key: "_output_shapes"
    value {
      list {
        shape {
        }
      }
    }
  }
  attr {
    key: "dtype"
    value {
      type: DT_INT32
    }
  }
  attr {
    key: "value"
    value {
      tensor {
        dtype: DT_INT32
        tensor_shape {
        }
        int_val: 0
      }
    }
  }
}
node {
  name: "load_images/strided_slice_3/stack/2"
  op: "Const"
  attr {
    key: "_output_shapes"
    value {
      list {
        shape {
        }
      }
    }
  }
  attr {
    key: "dtype"
    value {
      type: DT_INT32
    }
  }
  attr {
    key: "value"
    value {
      tensor {
        dtype: DT_INT32
        tensor_shape {
        }
        int_val: 0
      }
    }
  }
}
node {
  name: "load_images/strided_slice_3/stack"
  op: "Pack"
  input: "load_images/strided_slice_3/stack/0"
  input: "load_images/floordiv_1"
  input: "load_images/strided_slice_3/stack/2"
  attr {
    key: "N"
    value {
      i: 3
    }
  }
  attr {
    key: "T"
    value {
      type: DT_INT32
    }
  }
  attr {
    key: "_output_shapes"
    value {
      list {
        shape {
          dim {
            size: 3
          }
        }
      }
    }
  }
  attr {
    key: "axis"
    value {
      i: 0
    }
  }
}
node {
  name: "load_images/strided_slice_3/stack_1"
  op: "Const"
  attr {
    key: "_output_shapes"
    value {
      list {
        shape {
          dim {
            size: 3
          }
        }
      }
    }
  }
  attr {
    key: "dtype"
    value {
      type: DT_INT32
    }
  }
  attr {
    key: "value"
    value {
      tensor {
        dtype: DT_INT32
        tensor_shape {
          dim {
            size: 3
          }
        }
        tensor_content: "\000\000\000\000\000\000\000\000\000\000\000\000"
      }
    }
  }
}
node {
  name: "load_images/strided_slice_3/stack_2"
  op: "Const"
  attr {
    key: "_output_shapes"
    value {
      list {
        shape {
          dim {
            size: 3
          }
        }
      }
    }
  }
  attr {
    key: "dtype"
    value {
      type: DT_INT32
    }
  }
  attr {
    key: "value"
    value {
      tensor {
        dtype: DT_INT32
        tensor_shape {
          dim {
            size: 3
          }
        }
        tensor_content: "\001\000\000\000\001\000\000\000\001\000\000\000"
      }
    }
  }
}
node {
  name: "load_images/strided_slice_3"
  op: "StridedSlice"
  input: "load_images/Identity"
  input: "load_images/strided_slice_3/stack"
  input: "load_images/strided_slice_3/stack_1"
  input: "load_images/strided_slice_3/stack_2"
  attr {
    key: "Index"
    value {
      type: DT_INT32
    }
  }
  attr {
    key: "T"
    value {
      type: DT_FLOAT
    }
  }
  attr {
    key: "_output_shapes"
    value {
      list {
        shape {
          dim {
            size: -1
          }
          dim {
            size: -1
          }
          dim {
            size: 3
          }
        }
      }
    }
  }
  attr {
    key: "begin_mask"
    value {
      i: 5
    }
  }
  attr {
    key: "ellipsis_mask"
    value {
      i: 0
    }
  }
  attr {
    key: "end_mask"
    value {
      i: 7
    }
  }
  attr {
    key: "new_axis_mask"
    value {
      i: 0
    }
  }
  attr {
    key: "shrink_axis_mask"
    value {
      i: 0
    }
  }
}
node {
  name: "load_images/preprocess_1/mul/y"
  op: "Const"
  attr {
    key: "_output_shapes"
    value {
      list {
        shape {
        }
      }
    }
  }
  attr {
    key: "dtype"
    value {
      type: DT_FLOAT
    }
  }
  attr {
    key: "value"
    value {
      tensor {
        dtype: DT_FLOAT
        tensor_shape {
        }
        float_val: 2.0
      }
    }
  }
}
node {
  name: "load_images/preprocess_1/mul"
  op: "Mul"
  input: "load_images/strided_slice_3"
  input: "load_images/preprocess_1/mul/y"
  attr {
    key: "T"
    value {
      type: DT_FLOAT
    }
  }
  attr {
    key: "_output_shapes"
    value {
      list {
        shape {
          dim {
            size: -1
          }
          dim {
            size: -1
          }
          dim {
            size: 3
          }
        }
      }
    }
  }
}
node {
  name: "load_images/preprocess_1/sub/y"
  op: "Const"
  attr {
    key: "_output_shapes"
    value {
      list {
        shape {
        }
      }
    }
  }
  attr {
    key: "dtype"
    value {
      type: DT_FLOAT
    }
  }
  attr {
    key: "value"
    value {
      tensor {
        dtype: DT_FLOAT
        tensor_shape {
        }
        float_val: 1.0
      }
    }
  }
}
node {
  name: "load_images/preprocess_1/sub"
  op: "Sub"
  input: "load_images/preprocess_1/mul"
  input: "load_images/preprocess_1/sub/y"
  attr {
    key: "T"
    value {
      type: DT_FLOAT
    }
  }
  attr {
    key: "_output_shapes"
    value {
      list {
        shape {
          dim {
            size: -1
          }
          dim {
            size: -1
          }
          dim {
            size: 3
          }
        }
      }
    }
  }
}
node {
  name: "input_images/Shape"
  op: "Shape"
  input: "load_images/preprocess/sub"
  attr {
    key: "T"
    value {
      type: DT_FLOAT
    }
  }
  attr {
    key: "_output_shapes"
    value {
      list {
        shape {
          dim {
            size: 3
          }
        }
      }
    }
  }
  attr {
    key: "out_type"
    value {
      type: DT_INT32
    }
  }
}
node {
  name: "input_images/assert_positive/Const"
  op: "Const"
  attr {
    key: "_output_shapes"
    value {
      list {
        shape {
        }
      }
    }
  }
  attr {
    key: "dtype"
    value {
      type: DT_INT32
    }
  }
  attr {
    key: "value"
    value {
      tensor {
        dtype: DT_INT32
        tensor_shape {
        }
        int_val: 0
      }
    }
  }
}
node {
  name: "input_images/assert_positive/assert_less/Less"
  op: "Less"
  input: "input_images/assert_positive/Const"
  input: "input_images/Shape"
  attr {
    key: "T"
    value {
      type: DT_INT32
    }
  }
  attr {
    key: "_output_shapes"
    value {
      list {
        shape {
          dim {
            size: 3
          }
        }
      }
    }
  }
}
node {
  name: "input_images/assert_positive/assert_less/Const"
  op: "Const"
  attr {
    key: "_output_shapes"
    value {
      list {
        shape {
          dim {
            size: 1
          }
        }
      }
    }
  }
  attr {
    key: "dtype"
    value {
      type: DT_INT32
    }
  }
  attr {
    key: "value"
    value {
      tensor {
        dtype: DT_INT32
        tensor_shape {
          dim {
            size: 1
          }
        }
        int_val: 0
      }
    }
  }
}
node {
  name: "input_images/assert_positive/assert_less/All"
  op: "All"
  input: "input_images/assert_positive/assert_less/Less"
  input: "input_images/assert_positive/assert_less/Const"
  attr {
    key: "Tidx"
    value {
      type: DT_INT32
    }
  }
  attr {
    key: "_output_shapes"
    value {
      list {
        shape {
        }
      }
    }
  }
  attr {
    key: "keep_dims"
    value {
      b: false
    }
  }
}
node {
  name: "input_images/assert_positive/assert_less/Assert/Const"
  op: "Const"
  attr {
    key: "_output_shapes"
    value {
      list {
        shape {
        }
      }
    }
  }
  attr {
    key: "dtype"
    value {
      type: DT_STRING
    }
  }
  attr {
    key: "value"
    value {
      tensor {
        dtype: DT_STRING
        tensor_shape {
        }
        string_val: "all dims of \'image.shape\' must be > 0."
      }
    }
  }
}
node {
  name: "input_images/assert_positive/assert_less/Assert/Assert/data_0"
  op: "Const"
  attr {
    key: "_output_shapes"
    value {
      list {
        shape {
        }
      }
    }
  }
  attr {
    key: "dtype"
    value {
      type: DT_STRING
    }
  }
  attr {
    key: "value"
    value {
      tensor {
        dtype: DT_STRING
        tensor_shape {
        }
        string_val: "all dims of \'image.shape\' must be > 0."
      }
    }
  }
}
node {
  name: "input_images/assert_positive/assert_less/Assert/Assert"
  op: "Assert"
  input: "input_images/assert_positive/assert_less/All"
  input: "input_images/assert_positive/assert_less/Assert/Assert/data_0"
  attr {
    key: "T"
    value {
      list {
        type: DT_STRING
      }
    }
  }
  attr {
    key: "summarize"
    value {
      i: 3
    }
  }
}
node {
  name: "input_images/control_dependency"
  op: "Identity"
  input: "load_images/preprocess/sub"
  input: "^input_images/assert_positive/assert_less/Assert/Assert"
  attr {
    key: "T"
    value {
      type: DT_FLOAT
    }
  }
  attr {
    key: "_class"
    value {
      list {
        s: "loc:@load_images/preprocess/sub"
      }
    }
  }
  attr {
    key: "_output_shapes"
    value {
      list {
        shape {
          dim {
            size: -1
          }
          dim {
            size: -1
          }
          dim {
            size: 3
          }
        }
      }
    }
  }
}
node {
  name: "input_images/random_uniform/shape"
  op: "Const"
  attr {
    key: "_output_shapes"
    value {
      list {
        shape {
          dim {
          }
        }
      }
    }
  }
  attr {
    key: "dtype"
    value {
      type: DT_INT32
    }
  }
  attr {
    key: "value"
    value {
      tensor {
        dtype: DT_INT32
        tensor_shape {
          dim {
          }
        }
      }
    }
  }
}
node {
  name: "input_images/random_uniform/min"
  op: "Const"
  attr {
    key: "_output_shapes"
    value {
      list {
        shape {
        }
      }
    }
  }
  attr {
    key: "dtype"
    value {
      type: DT_FLOAT
    }
  }
  attr {
    key: "value"
    value {
      tensor {
        dtype: DT_FLOAT
        tensor_shape {
        }
        float_val: 0.0
      }
    }
  }
}
node {
  name: "input_images/random_uniform/max"
  op: "Const"
  attr {
    key: "_output_shapes"
    value {
      list {
        shape {
        }
      }
    }
  }
  attr {
    key: "dtype"
    value {
      type: DT_FLOAT
    }
  }
  attr {
    key: "value"
    value {
      tensor {
        dtype: DT_FLOAT
        tensor_shape {
        }
        float_val: 1.0
      }
    }
  }
}
node {
  name: "input_images/random_uniform/RandomUniform"
  op: "RandomUniform"
  input: "input_images/random_uniform/shape"
  attr {
    key: "T"
    value {
      type: DT_INT32
    }
  }
  attr {
    key: "_output_shapes"
    value {
      list {
        shape {
        }
      }
    }
  }
  attr {
    key: "dtype"
    value {
      type: DT_FLOAT
    }
  }
  attr {
    key: "seed"
    value {
      i: 855892254
    }
  }
  attr {
    key: "seed2"
    value {
      i: 1258192095
    }
  }
}
node {
  name: "input_images/random_uniform/sub"
  op: "Sub"
  input: "input_images/random_uniform/max"
  input: "input_images/random_uniform/min"
  attr {
    key: "T"
    value {
      type: DT_FLOAT
    }
  }
  attr {
    key: "_output_shapes"
    value {
      list {
        shape {
        }
      }
    }
  }
}
node {
  name: "input_images/random_uniform/mul"
  op: "Mul"
  input: "input_images/random_uniform/RandomUniform"
  input: "input_images/random_uniform/sub"
  attr {
    key: "T"
    value {
      type: DT_FLOAT
    }
  }
  attr {
    key: "_output_shapes"
    value {
      list {
        shape {
        }
      }
    }
  }
}
node {
  name: "input_images/random_uniform"
  op: "Add"
  input: "input_images/random_uniform/mul"
  input: "input_images/random_uniform/min"
  attr {
    key: "T"
    value {
      type: DT_FLOAT
    }
  }
  attr {
    key: "_output_shapes"
    value {
      list {
        shape {
        }
      }
    }
  }
}
node {
  name: "input_images/Less/y"
  op: "Const"
  attr {
    key: "_output_shapes"
    value {
      list {
        shape {
        }
      }
    }
  }
  attr {
    key: "dtype"
    value {
      type: DT_FLOAT
    }
  }
  attr {
    key: "value"
    value {
      tensor {
        dtype: DT_FLOAT
        tensor_shape {
        }
        float_val: 0.5
      }
    }
  }
}
node {
  name: "input_images/Less"
  op: "Less"
  input: "input_images/random_uniform"
  input: "input_images/Less/y"
  attr {
    key: "T"
    value {
      type: DT_FLOAT
    }
  }
  attr {
    key: "_output_shapes"
    value {
      list {
        shape {
        }
      }
    }
  }
}
node {
  name: "input_images/cond/Switch"
  op: "Switch"
  input: "input_images/Less"
  input: "input_images/Less"
  attr {
    key: "T"
    value {
      type: DT_BOOL
    }
  }
  attr {
    key: "_output_shapes"
    value {
      list {
        shape {
        }
        shape {
        }
      }
    }
  }
}
node {
  name: "input_images/cond/switch_t"
  op: "Identity"
  input: "input_images/cond/Switch:1"
  attr {
    key: "T"
    value {
      type: DT_BOOL
    }
  }
  attr {
    key: "_output_shapes"
    value {
      list {
        shape {
        }
      }
    }
  }
}
node {
  name: "input_images/cond/switch_f"
  op: "Identity"
  input: "input_images/cond/Switch"
  attr {
    key: "T"
    value {
      type: DT_BOOL
    }
  }
  attr {
    key: "_output_shapes"
    value {
      list {
        shape {
        }
      }
    }
  }
}
node {
  name: "input_images/cond/pred_id"
  op: "Identity"
  input: "input_images/Less"
  attr {
    key: "T"
    value {
      type: DT_BOOL
    }
  }
  attr {
    key: "_output_shapes"
    value {
      list {
        shape {
        }
      }
    }
  }
}
node {
  name: "input_images/cond/ReverseV2/axis"
  op: "Const"
  input: "^input_images/cond/switch_t"
  attr {
    key: "_output_shapes"
    value {
      list {
        shape {
          dim {
            size: 1
          }
        }
      }
    }
  }
  attr {
    key: "dtype"
    value {
      type: DT_INT32
    }
  }
  attr {
    key: "value"
    value {
      tensor {
        dtype: DT_INT32
        tensor_shape {
          dim {
            size: 1
          }
        }
        int_val: 1
      }
    }
  }
}
node {
  name: "input_images/cond/ReverseV2/Switch"
  op: "Switch"
  input: "input_images/control_dependency"
  input: "input_images/cond/pred_id"
  attr {
    key: "T"
    value {
      type: DT_FLOAT
    }
  }
  attr {
    key: "_class"
    value {
      list {
        s: "loc:@load_images/preprocess/sub"
      }
    }
  }
  attr {
    key: "_output_shapes"
    value {
      list {
        shape {
          dim {
            size: -1
          }
          dim {
            size: -1
          }
          dim {
            size: 3
          }
        }
        shape {
          dim {
            size: -1
          }
          dim {
            size: -1
          }
          dim {
            size: 3
          }
        }
      }
    }
  }
}
node {
  name: "input_images/cond/ReverseV2"
  op: "ReverseV2"
  input: "input_images/cond/ReverseV2/Switch:1"
  input: "input_images/cond/ReverseV2/axis"
  attr {
    key: "T"
    value {
      type: DT_FLOAT
    }
  }
  attr {
    key: "Tidx"
    value {
      type: DT_INT32
    }
  }
  attr {
    key: "_output_shapes"
    value {
      list {
        shape {
          dim {
            size: -1
          }
          dim {
            size: -1
          }
          dim {
            size: 3
          }
        }
      }
    }
  }
}
node {
  name: "input_images/cond/Switch_1"
  op: "Switch"
  input: "input_images/control_dependency"
  input: "input_images/cond/pred_id"
  attr {
    key: "T"
    value {
      type: DT_FLOAT
    }
  }
  attr {
    key: "_class"
    value {
      list {
        s: "loc:@load_images/preprocess/sub"
      }
    }
  }
  attr {
    key: "_output_shapes"
    value {
      list {
        shape {
          dim {
            size: -1
          }
          dim {
            size: -1
          }
          dim {
            size: 3
          }
        }
        shape {
          dim {
            size: -1
          }
          dim {
            size: -1
          }
          dim {
            size: 3
          }
        }
      }
    }
  }
}
node {
  name: "input_images/cond/Merge"
  op: "Merge"
  input: "input_images/cond/Switch_1"
  input: "input_images/cond/ReverseV2"
  attr {
    key: "N"
    value {
      i: 2
    }
  }
  attr {
    key: "T"
    value {
      type: DT_FLOAT
    }
  }
  attr {
    key: "_output_shapes"
    value {
      list {
        shape {
          dim {
            size: -1
          }
          dim {
            size: -1
          }
          dim {
            size: 3
          }
        }
        shape {
        }
      }
    }
  }
}
node {
  name: "input_images/ExpandDims/dim"
  op: "Const"
  attr {
    key: "_output_shapes"
    value {
      list {
        shape {
        }
      }
    }
  }
  attr {
    key: "dtype"
    value {
      type: DT_INT32
    }
  }
  attr {
    key: "value"
    value {
      tensor {
        dtype: DT_INT32
        tensor_shape {
        }
        int_val: 0
      }
    }
  }
}
node {
  name: "input_images/ExpandDims"
  op: "ExpandDims"
  input: "input_images/cond/Merge"
  input: "input_images/ExpandDims/dim"
  attr {
    key: "T"
    value {
      type: DT_FLOAT
    }
  }
  attr {
    key: "Tdim"
    value {
      type: DT_INT32
    }
  }
  attr {
    key: "_output_shapes"
    value {
      list {
        shape {
          dim {
            size: 1
          }
          dim {
            size: -1
          }
          dim {
            size: -1
          }
          dim {
            size: 3
          }
        }
      }
    }
  }
}
node {
  name: "input_images/size"
  op: "Const"
  attr {
    key: "_output_shapes"
    value {
      list {
        shape {
          dim {
            size: 2
          }
        }
      }
    }
  }
  attr {
    key: "dtype"
    value {
      type: DT_INT32
    }
  }
  attr {
    key: "value"
    value {
      tensor {
        dtype: DT_INT32
        tensor_shape {
          dim {
            size: 2
          }
        }
        tensor_content: "\036\001\000\000\036\001\000\000"
      }
    }
  }
}
node {
  name: "input_images/ResizeArea"
  op: "ResizeArea"
  input: "input_images/ExpandDims"
  input: "input_images/size"
  attr {
    key: "T"
    value {
      type: DT_FLOAT
    }
  }
  attr {
    key: "_output_shapes"
    value {
      list {
        shape {
          dim {
            size: 1
          }
          dim {
            size: 286
          }
          dim {
            size: 286
          }
          dim {
            size: 3
          }
        }
      }
    }
  }
  attr {
    key: "align_corners"
    value {
      b: false
    }
  }
}
node {
  name: "input_images/Squeeze"
  op: "Squeeze"
  input: "input_images/ResizeArea"
  attr {
    key: "T"
    value {
      type: DT_FLOAT
    }
  }
  attr {
    key: "_output_shapes"
    value {
      list {
        shape {
          dim {
            size: 286
          }
          dim {
            size: 286
          }
          dim {
            size: 3
          }
        }
      }
    }
  }
  attr {
    key: "squeeze_dims"
    value {
      list {
        i: 0
      }
    }
  }
}
node {
  name: "input_images/random_uniform_1/shape"
  op: "Const"
  attr {
    key: "_output_shapes"
    value {
      list {
        shape {
          dim {
            size: 1
          }
        }
      }
    }
  }
  attr {
    key: "dtype"
    value {
      type: DT_INT32
    }
  }
  attr {
    key: "value"
    value {
      tensor {
        dtype: DT_INT32
        tensor_shape {
          dim {
            size: 1
          }
        }
        int_val: 2
      }
    }
  }
}
node {
  name: "input_images/random_uniform_1/min"
  op: "Const"
  attr {
    key: "_output_shapes"
    value {
      list {
        shape {
        }
      }
    }
  }
  attr {
    key: "dtype"
    value {
      type: DT_FLOAT
    }
  }
  attr {
    key: "value"
    value {
      tensor {
        dtype: DT_FLOAT
        tensor_shape {
        }
        float_val: 0.0
      }
    }
  }
}
node {
  name: "input_images/random_uniform_1/max"
  op: "Const"
  attr {
    key: "_output_shapes"
    value {
      list {
        shape {
        }
      }
    }
  }
  attr {
    key: "dtype"
    value {
      type: DT_FLOAT
    }
  }
  attr {
    key: "value"
    value {
      tensor {
        dtype: DT_FLOAT
        tensor_shape {
        }
        float_val: 31.0
      }
    }
  }
}
node {
  name: "input_images/random_uniform_1/RandomUniform"
  op: "RandomUniform"
  input: "input_images/random_uniform_1/shape"
  attr {
    key: "T"
    value {
      type: DT_INT32
    }
  }
  attr {
    key: "_output_shapes"
    value {
      list {
        shape {
          dim {
            size: 2
          }
        }
      }
    }
  }
  attr {
    key: "dtype"
    value {
      type: DT_FLOAT
    }
  }
  attr {
    key: "seed"
    value {
      i: 855892254
    }
  }
  attr {
    key: "seed2"
    value {
      i: 1258192095
    }
  }
}
node {
  name: "input_images/random_uniform_1/sub"
  op: "Sub"
  input: "input_images/random_uniform_1/max"
  input: "input_images/random_uniform_1/min"
  attr {
    key: "T"
    value {
      type: DT_FLOAT
    }
  }
  attr {
    key: "_output_shapes"
    value {
      list {
        shape {
        }
      }
    }
  }
}
node {
  name: "input_images/random_uniform_1/mul"
  op: "Mul"
  input: "input_images/random_uniform_1/RandomUniform"
  input: "input_images/random_uniform_1/sub"
  attr {
    key: "T"
    value {
      type: DT_FLOAT
    }
  }
  attr {
    key: "_output_shapes"
    value {
      list {
        shape {
          dim {
            size: 2
          }
        }
      }
    }
  }
}
node {
  name: "input_images/random_uniform_1"
  op: "Add"
  input: "input_images/random_uniform_1/mul"
  input: "input_images/random_uniform_1/min"
  attr {
    key: "T"
    value {
      type: DT_FLOAT
    }
  }
  attr {
    key: "_output_shapes"
    value {
      list {
        shape {
          dim {
            size: 2
          }
        }
      }
    }
  }
}
node {
  name: "input_images/Floor"
  op: "Floor"
  input: "input_images/random_uniform_1"
  attr {
    key: "T"
    value {
      type: DT_FLOAT
    }
  }
  attr {
    key: "_output_shapes"
    value {
      list {
        shape {
          dim {
            size: 2
          }
        }
      }
    }
  }
}
node {
  name: "input_images/Cast"
  op: "Cast"
  input: "input_images/Floor"
  attr {
    key: "DstT"
    value {
      type: DT_INT32
    }
  }
  attr {
    key: "SrcT"
    value {
      type: DT_FLOAT
    }
  }
  attr {
    key: "_output_shapes"
    value {
      list {
        shape {
          dim {
            size: 2
          }
        }
      }
    }
  }
}
node {
  name: "input_images/strided_slice/stack"
  op: "Const"
  attr {
    key: "_output_shapes"
    value {
      list {
        shape {
          dim {
            size: 1
          }
        }
      }
    }
  }
  attr {
    key: "dtype"
    value {
      type: DT_INT32
    }
  }
  attr {
    key: "value"
    value {
      tensor {
        dtype: DT_INT32
        tensor_shape {
          dim {
            size: 1
          }
        }
        int_val: 0
      }
    }
  }
}
node {
  name: "input_images/strided_slice/stack_1"
  op: "Const"
  attr {
    key: "_output_shapes"
    value {
      list {
        shape {
          dim {
            size: 1
          }
        }
      }
    }
  }
  attr {
    key: "dtype"
    value {
      type: DT_INT32
    }
  }
  attr {
    key: "value"
    value {
      tensor {
        dtype: DT_INT32
        tensor_shape {
          dim {
            size: 1
          }
        }
        int_val: 1
      }
    }
  }
}
node {
  name: "input_images/strided_slice/stack_2"
  op: "Const"
  attr {
    key: "_output_shapes"
    value {
      list {
        shape {
          dim {
            size: 1
          }
        }
      }
    }
  }
  attr {
    key: "dtype"
    value {
      type: DT_INT32
    }
  }
  attr {
    key: "value"
    value {
      tensor {
        dtype: DT_INT32
        tensor_shape {
          dim {
            size: 1
          }
        }
        int_val: 1
      }
    }
  }
}
node {
  name: "input_images/strided_slice"
  op: "StridedSlice"
  input: "input_images/Cast"
  input: "input_images/strided_slice/stack"
  input: "input_images/strided_slice/stack_1"
  input: "input_images/strided_slice/stack_2"
  attr {
    key: "Index"
    value {
      type: DT_INT32
    }
  }
  attr {
    key: "T"
    value {
      type: DT_INT32
    }
  }
  attr {
    key: "_output_shapes"
    value {
      list {
        shape {
        }
      }
    }
  }
  attr {
    key: "begin_mask"
    value {
      i: 0
    }
  }
  attr {
    key: "ellipsis_mask"
    value {
      i: 0
    }
  }
  attr {
    key: "end_mask"
    value {
      i: 0
    }
  }
  attr {
    key: "new_axis_mask"
    value {
      i: 0
    }
  }
  attr {
    key: "shrink_axis_mask"
    value {
      i: 1
    }
  }
}
node {
  name: "input_images/strided_slice_1/stack"
  op: "Const"
  attr {
    key: "_output_shapes"
    value {
      list {
        shape {
          dim {
            size: 1
          }
        }
      }
    }
  }
  attr {
    key: "dtype"
    value {
      type: DT_INT32
    }
  }
  attr {
    key: "value"
    value {
      tensor {
        dtype: DT_INT32
        tensor_shape {
          dim {
            size: 1
          }
        }
        int_val: 1
      }
    }
  }
}
node {
  name: "input_images/strided_slice_1/stack_1"
  op: "Const"
  attr {
    key: "_output_shapes"
    value {
      list {
        shape {
          dim {
            size: 1
          }
        }
      }
    }
  }
  attr {
    key: "dtype"
    value {
      type: DT_INT32
    }
  }
  attr {
    key: "value"
    value {
      tensor {
        dtype: DT_INT32
        tensor_shape {
          dim {
            size: 1
          }
        }
        int_val: 2
      }
    }
  }
}
node {
  name: "input_images/strided_slice_1/stack_2"
  op: "Const"
  attr {
    key: "_output_shapes"
    value {
      list {
        shape {
          dim {
            size: 1
          }
        }
      }
    }
  }
  attr {
    key: "dtype"
    value {
      type: DT_INT32
    }
  }
  attr {
    key: "value"
    value {
      tensor {
        dtype: DT_INT32
        tensor_shape {
          dim {
            size: 1
          }
        }
        int_val: 1
      }
    }
  }
}
node {
  name: "input_images/strided_slice_1"
  op: "StridedSlice"
  input: "input_images/Cast"
  input: "input_images/strided_slice_1/stack"
  input: "input_images/strided_slice_1/stack_1"
  input: "input_images/strided_slice_1/stack_2"
  attr {
    key: "Index"
    value {
      type: DT_INT32
    }
  }
  attr {
    key: "T"
    value {
      type: DT_INT32
    }
  }
  attr {
    key: "_output_shapes"
    value {
      list {
        shape {
        }
      }
    }
  }
  attr {
    key: "begin_mask"
    value {
      i: 0
    }
  }
  attr {
    key: "ellipsis_mask"
    value {
      i: 0
    }
  }
  attr {
    key: "end_mask"
    value {
      i: 0
    }
  }
  attr {
    key: "new_axis_mask"
    value {
      i: 0
    }
  }
  attr {
    key: "shrink_axis_mask"
    value {
      i: 1
    }
  }
}
node {
  name: "input_images/ExpandDims_1/dim"
  op: "Const"
  attr {
    key: "_output_shapes"
    value {
      list {
        shape {
        }
      }
    }
  }
  attr {
    key: "dtype"
    value {
      type: DT_INT32
    }
  }
  attr {
    key: "value"
    value {
      tensor {
        dtype: DT_INT32
        tensor_shape {
        }
        int_val: 0
      }
    }
  }
}
node {
  name: "input_images/ExpandDims_1"
  op: "ExpandDims"
  input: "input_images/Squeeze"
  input: "input_images/ExpandDims_1/dim"
  attr {
    key: "T"
    value {
      type: DT_FLOAT
    }
  }
  attr {
    key: "Tdim"
    value {
      type: DT_INT32
    }
  }
  attr {
    key: "_output_shapes"
    value {
      list {
        shape {
          dim {
            size: 1
          }
          dim {
            size: 286
          }
          dim {
            size: 286
          }
          dim {
            size: 3
          }
        }
      }
    }
  }
}
node {
  name: "input_images/GreaterEqual/y"
  op: "Const"
  attr {
    key: "_output_shapes"
    value {
      list {
        shape {
        }
      }
    }
  }
  attr {
    key: "dtype"
    value {
      type: DT_INT32
    }
  }
  attr {
    key: "value"
    value {
      tensor {
        dtype: DT_INT32
        tensor_shape {
        }
        int_val: 0
      }
    }
  }
}
node {
  name: "input_images/GreaterEqual"
  op: "GreaterEqual"
  input: "input_images/strided_slice_1"
  input: "input_images/GreaterEqual/y"
  attr {
    key: "T"
    value {
      type: DT_INT32
    }
  }
  attr {
    key: "_output_shapes"
    value {
      list {
        shape {
        }
      }
    }
  }
}
node {
  name: "input_images/Assert/Const"
  op: "Const"
  attr {
    key: "_output_shapes"
    value {
      list {
        shape {
        }
      }
    }
  }
  attr {
    key: "dtype"
    value {
      type: DT_STRING
    }
  }
  attr {
    key: "value"
    value {
      tensor {
        dtype: DT_STRING
        tensor_shape {
        }
        string_val: "offset_width must be >= 0."
      }
    }
  }
}
node {
  name: "input_images/Assert/Assert/data_0"
  op: "Const"
  attr {
    key: "_output_shapes"
    value {
      list {
        shape {
        }
      }
    }
  }
  attr {
    key: "dtype"
    value {
      type: DT_STRING
    }
  }
  attr {
    key: "value"
    value {
      tensor {
        dtype: DT_STRING
        tensor_shape {
        }
        string_val: "offset_width must be >= 0."
      }
    }
  }
}
node {
  name: "input_images/Assert/Assert"
  op: "Assert"
  input: "input_images/GreaterEqual"
  input: "input_images/Assert/Assert/data_0"
  attr {
    key: "T"
    value {
      list {
        type: DT_STRING
      }
    }
  }
  attr {
    key: "summarize"
    value {
      i: 3
    }
  }
}
node {
  name: "input_images/GreaterEqual_1/y"
  op: "Const"
  attr {
    key: "_output_shapes"
    value {
      list {
        shape {
        }
      }
    }
  }
  attr {
    key: "dtype"
    value {
      type: DT_INT32
    }
  }
  attr {
    key: "value"
    value {
      tensor {
        dtype: DT_INT32
        tensor_shape {
        }
        int_val: 0
      }
    }
  }
}
node {
  name: "input_images/GreaterEqual_1"
  op: "GreaterEqual"
  input: "input_images/strided_slice"
  input: "input_images/GreaterEqual_1/y"
  attr {
    key: "T"
    value {
      type: DT_INT32
    }
  }
  attr {
    key: "_output_shapes"
    value {
      list {
        shape {
        }
      }
    }
  }
}
node {
  name: "input_images/Assert_1/Const"
  op: "Const"
  attr {
    key: "_output_shapes"
    value {
      list {
        shape {
        }
      }
    }
  }
  attr {
    key: "dtype"
    value {
      type: DT_STRING
    }
  }
  attr {
    key: "value"
    value {
      tensor {
        dtype: DT_STRING
        tensor_shape {
        }
        string_val: "offset_height must be >= 0."
      }
    }
  }
}
node {
  name: "input_images/Assert_1/Assert/data_0"
  op: "Const"
  attr {
    key: "_output_shapes"
    value {
      list {
        shape {
        }
      }
    }
  }
  attr {
    key: "dtype"
    value {
      type: DT_STRING
    }
  }
  attr {
    key: "value"
    value {
      tensor {
        dtype: DT_STRING
        tensor_shape {
        }
        string_val: "offset_height must be >= 0."
      }
    }
  }
}
node {
  name: "input_images/Assert_1/Assert"
  op: "Assert"
  input: "input_images/GreaterEqual_1"
  input: "input_images/Assert_1/Assert/data_0"
  attr {
    key: "T"
    value {
      list {
        type: DT_STRING
      }
    }
  }
  attr {
    key: "summarize"
    value {
      i: 3
    }
  }
}
node {
  name: "input_images/add/x"
  op: "Const"
  attr {
    key: "_output_shapes"
    value {
      list {
        shape {
        }
      }
    }
  }
  attr {
    key: "dtype"
    value {
      type: DT_INT32
    }
  }
  attr {
    key: "value"
    value {
      tensor {
        dtype: DT_INT32
        tensor_shape {
        }
        int_val: 256
      }
    }
  }
}
node {
  name: "input_images/add"
  op: "Add"
  input: "input_images/add/x"
  input: "input_images/strided_slice_1"
  attr {
    key: "T"
    value {
      type: DT_INT32
    }
  }
  attr {
    key: "_output_shapes"
    value {
      list {
        shape {
        }
      }
    }
  }
}
node {
  name: "input_images/LessEqual/y"
  op: "Const"
  attr {
    key: "_output_shapes"
    value {
      list {
        shape {
        }
      }
    }
  }
  attr {
    key: "dtype"
    value {
      type: DT_INT32
    }
  }
  attr {
    key: "value"
    value {
      tensor {
        dtype: DT_INT32
        tensor_shape {
        }
        int_val: 286
      }
    }
  }
}
node {
  name: "input_images/LessEqual"
  op: "LessEqual"
  input: "input_images/add"
  input: "input_images/LessEqual/y"
  attr {
    key: "T"
    value {
      type: DT_INT32
    }
  }
  attr {
    key: "_output_shapes"
    value {
      list {
        shape {
        }
      }
    }
  }
}
node {
  name: "input_images/Assert_2/Const"
  op: "Const"
  attr {
    key: "_output_shapes"
    value {
      list {
        shape {
        }
      }
    }
  }
  attr {
    key: "dtype"
    value {
      type: DT_STRING
    }
  }
  attr {
    key: "value"
    value {
      tensor {
        dtype: DT_STRING
        tensor_shape {
        }
        string_val: "width must be >= target + offset."
      }
    }
  }
}
node {
  name: "input_images/Assert_2/Assert/data_0"
  op: "Const"
  attr {
    key: "_output_shapes"
    value {
      list {
        shape {
        }
      }
    }
  }
  attr {
    key: "dtype"
    value {
      type: DT_STRING
    }
  }
  attr {
    key: "value"
    value {
      tensor {
        dtype: DT_STRING
        tensor_shape {
        }
        string_val: "width must be >= target + offset."
      }
    }
  }
}
node {
  name: "input_images/Assert_2/Assert"
  op: "Assert"
  input: "input_images/LessEqual"
  input: "input_images/Assert_2/Assert/data_0"
  attr {
    key: "T"
    value {
      list {
        type: DT_STRING
      }
    }
  }
  attr {
    key: "summarize"
    value {
      i: 3
    }
  }
}
node {
  name: "input_images/add_1/x"
  op: "Const"
  attr {
    key: "_output_shapes"
    value {
      list {
        shape {
        }
      }
    }
  }
  attr {
    key: "dtype"
    value {
      type: DT_INT32
    }
  }
  attr {
    key: "value"
    value {
      tensor {
        dtype: DT_INT32
        tensor_shape {
        }
        int_val: 256
      }
    }
  }
}
node {
  name: "input_images/add_1"
  op: "Add"
  input: "input_images/add_1/x"
  input: "input_images/strided_slice"
  attr {
    key: "T"
    value {
      type: DT_INT32
    }
  }
  attr {
    key: "_output_shapes"
    value {
      list {
        shape {
        }
      }
    }
  }
}
node {
  name: "input_images/LessEqual_1/y"
  op: "Const"
  attr {
    key: "_output_shapes"
    value {
      list {
        shape {
        }
      }
    }
  }
  attr {
    key: "dtype"
    value {
      type: DT_INT32
    }
  }
  attr {
    key: "value"
    value {
      tensor {
        dtype: DT_INT32
        tensor_shape {
        }
        int_val: 286
      }
    }
  }
}
node {
  name: "input_images/LessEqual_1"
  op: "LessEqual"
  input: "input_images/add_1"
  input: "input_images/LessEqual_1/y"
  attr {
    key: "T"
    value {
      type: DT_INT32
    }
  }
  attr {
    key: "_output_shapes"
    value {
      list {
        shape {
        }
      }
    }
  }
}
node {
  name: "input_images/Assert_3/Const"
  op: "Const"
  attr {
    key: "_output_shapes"
    value {
      list {
        shape {
        }
      }
    }
  }
  attr {
    key: "dtype"
    value {
      type: DT_STRING
    }
  }
  attr {
    key: "value"
    value {
      tensor {
        dtype: DT_STRING
        tensor_shape {
        }
        string_val: "height must be >= target + offset."
      }
    }
  }
}
node {
  name: "input_images/Assert_3/Assert/data_0"
  op: "Const"
  attr {
    key: "_output_shapes"
    value {
      list {
        shape {
        }
      }
    }
  }
  attr {
    key: "dtype"
    value {
      type: DT_STRING
    }
  }
  attr {
    key: "value"
    value {
      tensor {
        dtype: DT_STRING
        tensor_shape {
        }
        string_val: "height must be >= target + offset."
      }
    }
  }
}
node {
  name: "input_images/Assert_3/Assert"
  op: "Assert"
  input: "input_images/LessEqual_1"
  input: "input_images/Assert_3/Assert/data_0"
  attr {
    key: "T"
    value {
      list {
        type: DT_STRING
      }
    }
  }
  attr {
    key: "summarize"
    value {
      i: 3
    }
  }
}
node {
  name: "input_images/control_dependency_1"
  op: "Identity"
  input: "input_images/ExpandDims_1"
  input: "^input_images/Assert/Assert"
  input: "^input_images/Assert_1/Assert"
  input: "^input_images/Assert_2/Assert"
  input: "^input_images/Assert_3/Assert"
  attr {
    key: "T"
    value {
      type: DT_FLOAT
    }
  }
  attr {
    key: "_class"
    value {
      list {
        s: "loc:@input_images/ExpandDims_1"
      }
    }
  }
  attr {
    key: "_output_shapes"
    value {
      list {
        shape {
          dim {
            size: 1
          }
          dim {
            size: 286
          }
          dim {
            size: 286
          }
          dim {
            size: 3
          }
        }
      }
    }
  }
}
node {
  name: "input_images/stack/0"
  op: "Const"
  attr {
    key: "_output_shapes"
    value {
      list {
        shape {
        }
      }
    }
  }
  attr {
    key: "dtype"
    value {
      type: DT_INT32
    }
  }
  attr {
    key: "value"
    value {
      tensor {
        dtype: DT_INT32
        tensor_shape {
        }
        int_val: 0
      }
    }
  }
}
node {
  name: "input_images/stack/3"
  op: "Const"
  attr {
    key: "_output_shapes"
    value {
      list {
        shape {
        }
      }
    }
  }
  attr {
    key: "dtype"
    value {
      type: DT_INT32
    }
  }
  attr {
    key: "value"
    value {
      tensor {
        dtype: DT_INT32
        tensor_shape {
        }
        int_val: 0
      }
    }
  }
}
node {
  name: "input_images/stack"
  op: "Pack"
  input: "input_images/stack/0"
  input: "input_images/strided_slice"
  input: "input_images/strided_slice_1"
  input: "input_images/stack/3"
  attr {
    key: "N"
    value {
      i: 4
    }
  }
  attr {
    key: "T"
    value {
      type: DT_INT32
    }
  }
  attr {
    key: "_output_shapes"
    value {
      list {
        shape {
          dim {
            size: 4
          }
        }
      }
    }
  }
  attr {
    key: "axis"
    value {
      i: 0
    }
  }
}
node {
  name: "input_images/stack_1"
  op: "Const"
  attr {
    key: "_output_shapes"
    value {
      list {
        shape {
          dim {
            size: 4
          }
        }
      }
    }
  }
  attr {
    key: "dtype"
    value {
      type: DT_INT32
    }
  }
  attr {
    key: "value"
    value {
      tensor {
        dtype: DT_INT32
        tensor_shape {
          dim {
            size: 4
          }
        }
        tensor_content: "\377\377\377\377\000\001\000\000\000\001\000\000\377\377\377\377"
      }
    }
  }
}
node {
  name: "input_images/Slice"
  op: "Slice"
  input: "input_images/control_dependency_1"
  input: "input_images/stack"
  input: "input_images/stack_1"
  attr {
    key: "Index"
    value {
      type: DT_INT32
    }
  }
  attr {
    key: "T"
    value {
      type: DT_FLOAT
    }
  }
  attr {
    key: "_output_shapes"
    value {
      list {
        shape {
          dim {
            size: 1
          }
          dim {
            size: 256
          }
          dim {
            size: 256
          }
          dim {
            size: 3
          }
        }
      }
    }
  }
}
node {
  name: "input_images/Squeeze_1"
  op: "Squeeze"
  input: "input_images/Slice"
  attr {
    key: "T"
    value {
      type: DT_FLOAT
    }
  }
  attr {
    key: "_output_shapes"
    value {
      list {
        shape {
          dim {
            size: 256
          }
          dim {
            size: 256
          }
          dim {
            size: 3
          }
        }
      }
    }
  }
  attr {
    key: "squeeze_dims"
    value {
      list {
        i: 0
      }
    }
  }
}
node {
  name: "target_images/Shape"
  op: "Shape"
  input: "load_images/preprocess_1/sub"
  attr {
    key: "T"
    value {
      type: DT_FLOAT
    }
  }
  attr {
    key: "_output_shapes"
    value {
      list {
        shape {
          dim {
            size: 3
          }
        }
      }
    }
  }
  attr {
    key: "out_type"
    value {
      type: DT_INT32
    }
  }
}
node {
  name: "target_images/assert_positive/Const"
  op: "Const"
  attr {
    key: "_output_shapes"
    value {
      list {
        shape {
        }
      }
    }
  }
  attr {
    key: "dtype"
    value {
      type: DT_INT32
    }
  }
  attr {
    key: "value"
    value {
      tensor {
        dtype: DT_INT32
        tensor_shape {
        }
        int_val: 0
      }
    }
  }
}
node {
  name: "target_images/assert_positive/assert_less/Less"
  op: "Less"
  input: "target_images/assert_positive/Const"
  input: "target_images/Shape"
  attr {
    key: "T"
    value {
      type: DT_INT32
    }
  }
  attr {
    key: "_output_shapes"
    value {
      list {
        shape {
          dim {
            size: 3
          }
        }
      }
    }
  }
}
node {
  name: "target_images/assert_positive/assert_less/Const"
  op: "Const"
  attr {
    key: "_output_shapes"
    value {
      list {
        shape {
          dim {
            size: 1
          }
        }
      }
    }
  }
  attr {
    key: "dtype"
    value {
      type: DT_INT32
    }
  }
  attr {
    key: "value"
    value {
      tensor {
        dtype: DT_INT32
        tensor_shape {
          dim {
            size: 1
          }
        }
        int_val: 0
      }
    }
  }
}
node {
  name: "target_images/assert_positive/assert_less/All"
  op: "All"
  input: "target_images/assert_positive/assert_less/Less"
  input: "target_images/assert_positive/assert_less/Const"
  attr {
    key: "Tidx"
    value {
      type: DT_INT32
    }
  }
  attr {
    key: "_output_shapes"
    value {
      list {
        shape {
        }
      }
    }
  }
  attr {
    key: "keep_dims"
    value {
      b: false
    }
  }
}
node {
  name: "target_images/assert_positive/assert_less/Assert/Const"
  op: "Const"
  attr {
    key: "_output_shapes"
    value {
      list {
        shape {
        }
      }
    }
  }
  attr {
    key: "dtype"
    value {
      type: DT_STRING
    }
  }
  attr {
    key: "value"
    value {
      tensor {
        dtype: DT_STRING
        tensor_shape {
        }
        string_val: "all dims of \'image.shape\' must be > 0."
      }
    }
  }
}
node {
  name: "target_images/assert_positive/assert_less/Assert/Assert/data_0"
  op: "Const"
  attr {
    key: "_output_shapes"
    value {
      list {
        shape {
        }
      }
    }
  }
  attr {
    key: "dtype"
    value {
      type: DT_STRING
    }
  }
  attr {
    key: "value"
    value {
      tensor {
        dtype: DT_STRING
        tensor_shape {
        }
        string_val: "all dims of \'image.shape\' must be > 0."
      }
    }
  }
}
node {
  name: "target_images/assert_positive/assert_less/Assert/Assert"
  op: "Assert"
  input: "target_images/assert_positive/assert_less/All"
  input: "target_images/assert_positive/assert_less/Assert/Assert/data_0"
  attr {
    key: "T"
    value {
      list {
        type: DT_STRING
      }
    }
  }
  attr {
    key: "summarize"
    value {
      i: 3
    }
  }
}
node {
  name: "target_images/control_dependency"
  op: "Identity"
  input: "load_images/preprocess_1/sub"
  input: "^target_images/assert_positive/assert_less/Assert/Assert"
  attr {
    key: "T"
    value {
      type: DT_FLOAT
    }
  }
  attr {
    key: "_class"
    value {
      list {
        s: "loc:@load_images/preprocess_1/sub"
      }
    }
  }
  attr {
    key: "_output_shapes"
    value {
      list {
        shape {
          dim {
            size: -1
          }
          dim {
            size: -1
          }
          dim {
            size: 3
          }
        }
      }
    }
  }
}
node {
  name: "target_images/random_uniform/shape"
  op: "Const"
  attr {
    key: "_output_shapes"
    value {
      list {
        shape {
          dim {
          }
        }
      }
    }
  }
  attr {
    key: "dtype"
    value {
      type: DT_INT32
    }
  }
  attr {
    key: "value"
    value {
      tensor {
        dtype: DT_INT32
        tensor_shape {
          dim {
          }
        }
      }
    }
  }
}
node {
  name: "target_images/random_uniform/min"
  op: "Const"
  attr {
    key: "_output_shapes"
    value {
      list {
        shape {
        }
      }
    }
  }
  attr {
    key: "dtype"
    value {
      type: DT_FLOAT
    }
  }
  attr {
    key: "value"
    value {
      tensor {
        dtype: DT_FLOAT
        tensor_shape {
        }
        float_val: 0.0
      }
    }
  }
}
node {
  name: "target_images/random_uniform/max"
  op: "Const"
  attr {
    key: "_output_shapes"
    value {
      list {
        shape {
        }
      }
    }
  }
  attr {
    key: "dtype"
    value {
      type: DT_FLOAT
    }
  }
  attr {
    key: "value"
    value {
      tensor {
        dtype: DT_FLOAT
        tensor_shape {
        }
        float_val: 1.0
      }
    }
  }
}
node {
  name: "target_images/random_uniform/RandomUniform"
  op: "RandomUniform"
  input: "target_images/random_uniform/shape"
  attr {
    key: "T"
    value {
      type: DT_INT32
    }
  }
  attr {
    key: "_output_shapes"
    value {
      list {
        shape {
        }
      }
    }
  }
  attr {
    key: "dtype"
    value {
      type: DT_FLOAT
    }
  }
  attr {
    key: "seed"
    value {
      i: 855892254
    }
  }
  attr {
    key: "seed2"
    value {
      i: 1258192095
    }
  }
}
node {
  name: "target_images/random_uniform/sub"
  op: "Sub"
  input: "target_images/random_uniform/max"
  input: "target_images/random_uniform/min"
  attr {
    key: "T"
    value {
      type: DT_FLOAT
    }
  }
  attr {
    key: "_output_shapes"
    value {
      list {
        shape {
        }
      }
    }
  }
}
node {
  name: "target_images/random_uniform/mul"
  op: "Mul"
  input: "target_images/random_uniform/RandomUniform"
  input: "target_images/random_uniform/sub"
  attr {
    key: "T"
    value {
      type: DT_FLOAT
    }
  }
  attr {
    key: "_output_shapes"
    value {
      list {
        shape {
        }
      }
    }
  }
}
node {
  name: "target_images/random_uniform"
  op: "Add"
  input: "target_images/random_uniform/mul"
  input: "target_images/random_uniform/min"
  attr {
    key: "T"
    value {
      type: DT_FLOAT
    }
  }
  attr {
    key: "_output_shapes"
    value {
      list {
        shape {
        }
      }
    }
  }
}
node {
  name: "target_images/Less/y"
  op: "Const"
  attr {
    key: "_output_shapes"
    value {
      list {
        shape {
        }
      }
    }
  }
  attr {
    key: "dtype"
    value {
      type: DT_FLOAT
    }
  }
  attr {
    key: "value"
    value {
      tensor {
        dtype: DT_FLOAT
        tensor_shape {
        }
        float_val: 0.5
      }
    }
  }
}
node {
  name: "target_images/Less"
  op: "Less"
  input: "target_images/random_uniform"
  input: "target_images/Less/y"
  attr {
    key: "T"
    value {
      type: DT_FLOAT
    }
  }
  attr {
    key: "_output_shapes"
    value {
      list {
        shape {
        }
      }
    }
  }
}
node {
  name: "target_images/cond/Switch"
  op: "Switch"
  input: "target_images/Less"
  input: "target_images/Less"
  attr {
    key: "T"
    value {
      type: DT_BOOL
    }
  }
  attr {
    key: "_output_shapes"
    value {
      list {
        shape {
        }
        shape {
        }
      }
    }
  }
}
node {
  name: "target_images/cond/switch_t"
  op: "Identity"
  input: "target_images/cond/Switch:1"
  attr {
    key: "T"
    value {
      type: DT_BOOL
    }
  }
  attr {
    key: "_output_shapes"
    value {
      list {
        shape {
        }
      }
    }
  }
}
node {
  name: "target_images/cond/switch_f"
  op: "Identity"
  input: "target_images/cond/Switch"
  attr {
    key: "T"
    value {
      type: DT_BOOL
    }
  }
  attr {
    key: "_output_shapes"
    value {
      list {
        shape {
        }
      }
    }
  }
}
node {
  name: "target_images/cond/pred_id"
  op: "Identity"
  input: "target_images/Less"
  attr {
    key: "T"
    value {
      type: DT_BOOL
    }
  }
  attr {
    key: "_output_shapes"
    value {
      list {
        shape {
        }
      }
    }
  }
}
node {
  name: "target_images/cond/ReverseV2/axis"
  op: "Const"
  input: "^target_images/cond/switch_t"
  attr {
    key: "_output_shapes"
    value {
      list {
        shape {
          dim {
            size: 1
          }
        }
      }
    }
  }
  attr {
    key: "dtype"
    value {
      type: DT_INT32
    }
  }
  attr {
    key: "value"
    value {
      tensor {
        dtype: DT_INT32
        tensor_shape {
          dim {
            size: 1
          }
        }
        int_val: 1
      }
    }
  }
}
node {
  name: "target_images/cond/ReverseV2/Switch"
  op: "Switch"
  input: "target_images/control_dependency"
  input: "target_images/cond/pred_id"
  attr {
    key: "T"
    value {
      type: DT_FLOAT
    }
  }
  attr {
    key: "_class"
    value {
      list {
        s: "loc:@load_images/preprocess_1/sub"
      }
    }
  }
  attr {
    key: "_output_shapes"
    value {
      list {
        shape {
          dim {
            size: -1
          }
          dim {
            size: -1
          }
          dim {
            size: 3
          }
        }
        shape {
          dim {
            size: -1
          }
          dim {
            size: -1
          }
          dim {
            size: 3
          }
        }
      }
    }
  }
}
node {
  name: "target_images/cond/ReverseV2"
  op: "ReverseV2"
  input: "target_images/cond/ReverseV2/Switch:1"
  input: "target_images/cond/ReverseV2/axis"
  attr {
    key: "T"
    value {
      type: DT_FLOAT
    }
  }
  attr {
    key: "Tidx"
    value {
      type: DT_INT32
    }
  }
  attr {
    key: "_output_shapes"
    value {
      list {
        shape {
          dim {
            size: -1
          }
          dim {
            size: -1
          }
          dim {
            size: 3
          }
        }
      }
    }
  }
}
node {
  name: "target_images/cond/Switch_1"
  op: "Switch"
  input: "target_images/control_dependency"
  input: "target_images/cond/pred_id"
  attr {
    key: "T"
    value {
      type: DT_FLOAT
    }
  }
  attr {
    key: "_class"
    value {
      list {
        s: "loc:@load_images/preprocess_1/sub"
      }
    }
  }
  attr {
    key: "_output_shapes"
    value {
      list {
        shape {
          dim {
            size: -1
          }
          dim {
            size: -1
          }
          dim {
            size: 3
          }
        }
        shape {
          dim {
            size: -1
          }
          dim {
            size: -1
          }
          dim {
            size: 3
          }
        }
      }
    }
  }
}
node {
  name: "target_images/cond/Merge"
  op: "Merge"
  input: "target_images/cond/Switch_1"
  input: "target_images/cond/ReverseV2"
  attr {
    key: "N"
    value {
      i: 2
    }
  }
  attr {
    key: "T"
    value {
      type: DT_FLOAT
    }
  }
  attr {
    key: "_output_shapes"
    value {
      list {
        shape {
          dim {
            size: -1
          }
          dim {
            size: -1
          }
          dim {
            size: 3
          }
        }
        shape {
        }
      }
    }
  }
}
node {
  name: "target_images/ExpandDims/dim"
  op: "Const"
  attr {
    key: "_output_shapes"
    value {
      list {
        shape {
        }
      }
    }
  }
  attr {
    key: "dtype"
    value {
      type: DT_INT32
    }
  }
  attr {
    key: "value"
    value {
      tensor {
        dtype: DT_INT32
        tensor_shape {
        }
        int_val: 0
      }
    }
  }
}
node {
  name: "target_images/ExpandDims"
  op: "ExpandDims"
  input: "target_images/cond/Merge"
  input: "target_images/ExpandDims/dim"
  attr {
    key: "T"
    value {
      type: DT_FLOAT
    }
  }
  attr {
    key: "Tdim"
    value {
      type: DT_INT32
    }
  }
  attr {
    key: "_output_shapes"
    value {
      list {
        shape {
          dim {
            size: 1
          }
          dim {
            size: -1
          }
          dim {
            size: -1
          }
          dim {
            size: 3
          }
        }
      }
    }
  }
}
node {
  name: "target_images/size"
  op: "Const"
  attr {
    key: "_output_shapes"
    value {
      list {
        shape {
          dim {
            size: 2
          }
        }
      }
    }
  }
  attr {
    key: "dtype"
    value {
      type: DT_INT32
    }
  }
  attr {
    key: "value"
    value {
      tensor {
        dtype: DT_INT32
        tensor_shape {
          dim {
            size: 2
          }
        }
        tensor_content: "\036\001\000\000\036\001\000\000"
      }
    }
  }
}
node {
  name: "target_images/ResizeArea"
  op: "ResizeArea"
  input: "target_images/ExpandDims"
  input: "target_images/size"
  attr {
    key: "T"
    value {
      type: DT_FLOAT
    }
  }
  attr {
    key: "_output_shapes"
    value {
      list {
        shape {
          dim {
            size: 1
          }
          dim {
            size: 286
          }
          dim {
            size: 286
          }
          dim {
            size: 3
          }
        }
      }
    }
  }
  attr {
    key: "align_corners"
    value {
      b: false
    }
  }
}
node {
  name: "target_images/Squeeze"
  op: "Squeeze"
  input: "target_images/ResizeArea"
  attr {
    key: "T"
    value {
      type: DT_FLOAT
    }
  }
  attr {
    key: "_output_shapes"
    value {
      list {
        shape {
          dim {
            size: 286
          }
          dim {
            size: 286
          }
          dim {
            size: 3
          }
        }
      }
    }
  }
  attr {
    key: "squeeze_dims"
    value {
      list {
        i: 0
      }
    }
  }
}
node {
  name: "target_images/random_uniform_1/shape"
  op: "Const"
  attr {
    key: "_output_shapes"
    value {
      list {
        shape {
          dim {
            size: 1
          }
        }
      }
    }
  }
  attr {
    key: "dtype"
    value {
      type: DT_INT32
    }
  }
  attr {
    key: "value"
    value {
      tensor {
        dtype: DT_INT32
        tensor_shape {
          dim {
            size: 1
          }
        }
        int_val: 2
      }
    }
  }
}
node {
  name: "target_images/random_uniform_1/min"
  op: "Const"
  attr {
    key: "_output_shapes"
    value {
      list {
        shape {
        }
      }
    }
  }
  attr {
    key: "dtype"
    value {
      type: DT_FLOAT
    }
  }
  attr {
    key: "value"
    value {
      tensor {
        dtype: DT_FLOAT
        tensor_shape {
        }
        float_val: 0.0
      }
    }
  }
}
node {
  name: "target_images/random_uniform_1/max"
  op: "Const"
  attr {
    key: "_output_shapes"
    value {
      list {
        shape {
        }
      }
    }
  }
  attr {
    key: "dtype"
    value {
      type: DT_FLOAT
    }
  }
  attr {
    key: "value"
    value {
      tensor {
        dtype: DT_FLOAT
        tensor_shape {
        }
        float_val: 31.0
      }
    }
  }
}
node {
  name: "target_images/random_uniform_1/RandomUniform"
  op: "RandomUniform"
  input: "target_images/random_uniform_1/shape"
  attr {
    key: "T"
    value {
      type: DT_INT32
    }
  }
  attr {
    key: "_output_shapes"
    value {
      list {
        shape {
          dim {
            size: 2
          }
        }
      }
    }
  }
  attr {
    key: "dtype"
    value {
      type: DT_FLOAT
    }
  }
  attr {
    key: "seed"
    value {
      i: 855892254
    }
  }
  attr {
    key: "seed2"
    value {
      i: 1258192095
    }
  }
}
node {
  name: "target_images/random_uniform_1/sub"
  op: "Sub"
  input: "target_images/random_uniform_1/max"
  input: "target_images/random_uniform_1/min"
  attr {
    key: "T"
    value {
      type: DT_FLOAT
    }
  }
  attr {
    key: "_output_shapes"
    value {
      list {
        shape {
        }
      }
    }
  }
}
node {
  name: "target_images/random_uniform_1/mul"
  op: "Mul"
  input: "target_images/random_uniform_1/RandomUniform"
  input: "target_images/random_uniform_1/sub"
  attr {
    key: "T"
    value {
      type: DT_FLOAT
    }
  }
  attr {
    key: "_output_shapes"
    value {
      list {
        shape {
          dim {
            size: 2
          }
        }
      }
    }
  }
}
node {
  name: "target_images/random_uniform_1"
  op: "Add"
  input: "target_images/random_uniform_1/mul"
  input: "target_images/random_uniform_1/min"
  attr {
    key: "T"
    value {
      type: DT_FLOAT
    }
  }
  attr {
    key: "_output_shapes"
    value {
      list {
        shape {
          dim {
            size: 2
          }
        }
      }
    }
  }
}
node {
  name: "target_images/Floor"
  op: "Floor"
  input: "target_images/random_uniform_1"
  attr {
    key: "T"
    value {
      type: DT_FLOAT
    }
  }
  attr {
    key: "_output_shapes"
    value {
      list {
        shape {
          dim {
            size: 2
          }
        }
      }
    }
  }
}
node {
  name: "target_images/Cast"
  op: "Cast"
  input: "target_images/Floor"
  attr {
    key: "DstT"
    value {
      type: DT_INT32
    }
  }
  attr {
    key: "SrcT"
    value {
      type: DT_FLOAT
    }
  }
  attr {
    key: "_output_shapes"
    value {
      list {
        shape {
          dim {
            size: 2
          }
        }
      }
    }
  }
}
node {
  name: "target_images/strided_slice/stack"
  op: "Const"
  attr {
    key: "_output_shapes"
    value {
      list {
        shape {
          dim {
            size: 1
          }
        }
      }
    }
  }
  attr {
    key: "dtype"
    value {
      type: DT_INT32
    }
  }
  attr {
    key: "value"
    value {
      tensor {
        dtype: DT_INT32
        tensor_shape {
          dim {
            size: 1
          }
        }
        int_val: 0
      }
    }
  }
}
node {
  name: "target_images/strided_slice/stack_1"
  op: "Const"
  attr {
    key: "_output_shapes"
    value {
      list {
        shape {
          dim {
            size: 1
          }
        }
      }
    }
  }
  attr {
    key: "dtype"
    value {
      type: DT_INT32
    }
  }
  attr {
    key: "value"
    value {
      tensor {
        dtype: DT_INT32
        tensor_shape {
          dim {
            size: 1
          }
        }
        int_val: 1
      }
    }
  }
}
node {
  name: "target_images/strided_slice/stack_2"
  op: "Const"
  attr {
    key: "_output_shapes"
    value {
      list {
        shape {
          dim {
            size: 1
          }
        }
      }
    }
  }
  attr {
    key: "dtype"
    value {
      type: DT_INT32
    }
  }
  attr {
    key: "value"
    value {
      tensor {
        dtype: DT_INT32
        tensor_shape {
          dim {
            size: 1
          }
        }
        int_val: 1
      }
    }
  }
}
node {
  name: "target_images/strided_slice"
  op: "StridedSlice"
  input: "target_images/Cast"
  input: "target_images/strided_slice/stack"
  input: "target_images/strided_slice/stack_1"
  input: "target_images/strided_slice/stack_2"
  attr {
    key: "Index"
    value {
      type: DT_INT32
    }
  }
  attr {
    key: "T"
    value {
      type: DT_INT32
    }
  }
  attr {
    key: "_output_shapes"
    value {
      list {
        shape {
        }
      }
    }
  }
  attr {
    key: "begin_mask"
    value {
      i: 0
    }
  }
  attr {
    key: "ellipsis_mask"
    value {
      i: 0
    }
  }
  attr {
    key: "end_mask"
    value {
      i: 0
    }
  }
  attr {
    key: "new_axis_mask"
    value {
      i: 0
    }
  }
  attr {
    key: "shrink_axis_mask"
    value {
      i: 1
    }
  }
}
node {
  name: "target_images/strided_slice_1/stack"
  op: "Const"
  attr {
    key: "_output_shapes"
    value {
      list {
        shape {
          dim {
            size: 1
          }
        }
      }
    }
  }
  attr {
    key: "dtype"
    value {
      type: DT_INT32
    }
  }
  attr {
    key: "value"
    value {
      tensor {
        dtype: DT_INT32
        tensor_shape {
          dim {
            size: 1
          }
        }
        int_val: 1
      }
    }
  }
}
node {
  name: "target_images/strided_slice_1/stack_1"
  op: "Const"
  attr {
    key: "_output_shapes"
    value {
      list {
        shape {
          dim {
            size: 1
          }
        }
      }
    }
  }
  attr {
    key: "dtype"
    value {
      type: DT_INT32
    }
  }
  attr {
    key: "value"
    value {
      tensor {
        dtype: DT_INT32
        tensor_shape {
          dim {
            size: 1
          }
        }
        int_val: 2
      }
    }
  }
}
node {
  name: "target_images/strided_slice_1/stack_2"
  op: "Const"
  attr {
    key: "_output_shapes"
    value {
      list {
        shape {
          dim {
            size: 1
          }
        }
      }
    }
  }
  attr {
    key: "dtype"
    value {
      type: DT_INT32
    }
  }
  attr {
    key: "value"
    value {
      tensor {
        dtype: DT_INT32
        tensor_shape {
          dim {
            size: 1
          }
        }
        int_val: 1
      }
    }
  }
}
node {
  name: "target_images/strided_slice_1"
  op: "StridedSlice"
  input: "target_images/Cast"
  input: "target_images/strided_slice_1/stack"
  input: "target_images/strided_slice_1/stack_1"
  input: "target_images/strided_slice_1/stack_2"
  attr {
    key: "Index"
    value {
      type: DT_INT32
    }
  }
  attr {
    key: "T"
    value {
      type: DT_INT32
    }
  }
  attr {
    key: "_output_shapes"
    value {
      list {
        shape {
        }
      }
    }
  }
  attr {
    key: "begin_mask"
    value {
      i: 0
    }
  }
  attr {
    key: "ellipsis_mask"
    value {
      i: 0
    }
  }
  attr {
    key: "end_mask"
    value {
      i: 0
    }
  }
  attr {
    key: "new_axis_mask"
    value {
      i: 0
    }
  }
  attr {
    key: "shrink_axis_mask"
    value {
      i: 1
    }
  }
}
node {
  name: "target_images/ExpandDims_1/dim"
  op: "Const"
  attr {
    key: "_output_shapes"
    value {
      list {
        shape {
        }
      }
    }
  }
  attr {
    key: "dtype"
    value {
      type: DT_INT32
    }
  }
  attr {
    key: "value"
    value {
      tensor {
        dtype: DT_INT32
        tensor_shape {
        }
        int_val: 0
      }
    }
  }
}
node {
  name: "target_images/ExpandDims_1"
  op: "ExpandDims"
  input: "target_images/Squeeze"
  input: "target_images/ExpandDims_1/dim"
  attr {
    key: "T"
    value {
      type: DT_FLOAT
    }
  }
  attr {
    key: "Tdim"
    value {
      type: DT_INT32
    }
  }
  attr {
    key: "_output_shapes"
    value {
      list {
        shape {
          dim {
            size: 1
          }
          dim {
            size: 286
          }
          dim {
            size: 286
          }
          dim {
            size: 3
          }
        }
      }
    }
  }
}
node {
  name: "target_images/GreaterEqual/y"
  op: "Const"
  attr {
    key: "_output_shapes"
    value {
      list {
        shape {
        }
      }
    }
  }
  attr {
    key: "dtype"
    value {
      type: DT_INT32
    }
  }
  attr {
    key: "value"
    value {
      tensor {
        dtype: DT_INT32
        tensor_shape {
        }
        int_val: 0
      }
    }
  }
}
node {
  name: "target_images/GreaterEqual"
  op: "GreaterEqual"
  input: "target_images/strided_slice_1"
  input: "target_images/GreaterEqual/y"
  attr {
    key: "T"
    value {
      type: DT_INT32
    }
  }
  attr {
    key: "_output_shapes"
    value {
      list {
        shape {
        }
      }
    }
  }
}
node {
  name: "target_images/Assert/Const"
  op: "Const"
  attr {
    key: "_output_shapes"
    value {
      list {
        shape {
        }
      }
    }
  }
  attr {
    key: "dtype"
    value {
      type: DT_STRING
    }
  }
  attr {
    key: "value"
    value {
      tensor {
        dtype: DT_STRING
        tensor_shape {
        }
        string_val: "offset_width must be >= 0."
      }
    }
  }
}
node {
  name: "target_images/Assert/Assert/data_0"
  op: "Const"
  attr {
    key: "_output_shapes"
    value {
      list {
        shape {
        }
      }
    }
  }
  attr {
    key: "dtype"
    value {
      type: DT_STRING
    }
  }
  attr {
    key: "value"
    value {
      tensor {
        dtype: DT_STRING
        tensor_shape {
        }
        string_val: "offset_width must be >= 0."
      }
    }
  }
}
node {
  name: "target_images/Assert/Assert"
  op: "Assert"
  input: "target_images/GreaterEqual"
  input: "target_images/Assert/Assert/data_0"
  attr {
    key: "T"
    value {
      list {
        type: DT_STRING
      }
    }
  }
  attr {
    key: "summarize"
    value {
      i: 3
    }
  }
}
node {
  name: "target_images/GreaterEqual_1/y"
  op: "Const"
  attr {
    key: "_output_shapes"
    value {
      list {
        shape {
        }
      }
    }
  }
  attr {
    key: "dtype"
    value {
      type: DT_INT32
    }
  }
  attr {
    key: "value"
    value {
      tensor {
        dtype: DT_INT32
        tensor_shape {
        }
        int_val: 0
      }
    }
  }
}
node {
  name: "target_images/GreaterEqual_1"
  op: "GreaterEqual"
  input: "target_images/strided_slice"
  input: "target_images/GreaterEqual_1/y"
  attr {
    key: "T"
    value {
      type: DT_INT32
    }
  }
  attr {
    key: "_output_shapes"
    value {
      list {
        shape {
        }
      }
    }
  }
}
node {
  name: "target_images/Assert_1/Const"
  op: "Const"
  attr {
    key: "_output_shapes"
    value {
      list {
        shape {
        }
      }
    }
  }
  attr {
    key: "dtype"
    value {
      type: DT_STRING
    }
  }
  attr {
    key: "value"
    value {
      tensor {
        dtype: DT_STRING
        tensor_shape {
        }
        string_val: "offset_height must be >= 0."
      }
    }
  }
}
node {
  name: "target_images/Assert_1/Assert/data_0"
  op: "Const"
  attr {
    key: "_output_shapes"
    value {
      list {
        shape {
        }
      }
    }
  }
  attr {
    key: "dtype"
    value {
      type: DT_STRING
    }
  }
  attr {
    key: "value"
    value {
      tensor {
        dtype: DT_STRING
        tensor_shape {
        }
        string_val: "offset_height must be >= 0."
      }
    }
  }
}
node {
  name: "target_images/Assert_1/Assert"
  op: "Assert"
  input: "target_images/GreaterEqual_1"
  input: "target_images/Assert_1/Assert/data_0"
  attr {
    key: "T"
    value {
      list {
        type: DT_STRING
      }
    }
  }
  attr {
    key: "summarize"
    value {
      i: 3
    }
  }
}
node {
  name: "target_images/add/x"
  op: "Const"
  attr {
    key: "_output_shapes"
    value {
      list {
        shape {
        }
      }
    }
  }
  attr {
    key: "dtype"
    value {
      type: DT_INT32
    }
  }
  attr {
    key: "value"
    value {
      tensor {
        dtype: DT_INT32
        tensor_shape {
        }
        int_val: 256
      }
    }
  }
}
node {
  name: "target_images/add"
  op: "Add"
  input: "target_images/add/x"
  input: "target_images/strided_slice_1"
  attr {
    key: "T"
    value {
      type: DT_INT32
    }
  }
  attr {
    key: "_output_shapes"
    value {
      list {
        shape {
        }
      }
    }
  }
}
node {
  name: "target_images/LessEqual/y"
  op: "Const"
  attr {
    key: "_output_shapes"
    value {
      list {
        shape {
        }
      }
    }
  }
  attr {
    key: "dtype"
    value {
      type: DT_INT32
    }
  }
  attr {
    key: "value"
    value {
      tensor {
        dtype: DT_INT32
        tensor_shape {
        }
        int_val: 286
      }
    }
  }
}
node {
  name: "target_images/LessEqual"
  op: "LessEqual"
  input: "target_images/add"
  input: "target_images/LessEqual/y"
  attr {
    key: "T"
    value {
      type: DT_INT32
    }
  }
  attr {
    key: "_output_shapes"
    value {
      list {
        shape {
        }
      }
    }
  }
}
node {
  name: "target_images/Assert_2/Const"
  op: "Const"
  attr {
    key: "_output_shapes"
    value {
      list {
        shape {
        }
      }
    }
  }
  attr {
    key: "dtype"
    value {
      type: DT_STRING
    }
  }
  attr {
    key: "value"
    value {
      tensor {
        dtype: DT_STRING
        tensor_shape {
        }
        string_val: "width must be >= target + offset."
      }
    }
  }
}
node {
  name: "target_images/Assert_2/Assert/data_0"
  op: "Const"
  attr {
    key: "_output_shapes"
    value {
      list {
        shape {
        }
      }
    }
  }
  attr {
    key: "dtype"
    value {
      type: DT_STRING
    }
  }
  attr {
    key: "value"
    value {
      tensor {
        dtype: DT_STRING
        tensor_shape {
        }
        string_val: "width must be >= target + offset."
      }
    }
  }
}
node {
  name: "target_images/Assert_2/Assert"
  op: "Assert"
  input: "target_images/LessEqual"
  input: "target_images/Assert_2/Assert/data_0"
  attr {
    key: "T"
    value {
      list {
        type: DT_STRING
      }
    }
  }
  attr {
    key: "summarize"
    value {
      i: 3
    }
  }
}
node {
  name: "target_images/add_1/x"
  op: "Const"
  attr {
    key: "_output_shapes"
    value {
      list {
        shape {
        }
      }
    }
  }
  attr {
    key: "dtype"
    value {
      type: DT_INT32
    }
  }
  attr {
    key: "value"
    value {
      tensor {
        dtype: DT_INT32
        tensor_shape {
        }
        int_val: 256
      }
    }
  }
}
node {
  name: "target_images/add_1"
  op: "Add"
  input: "target_images/add_1/x"
  input: "target_images/strided_slice"
  attr {
    key: "T"
    value {
      type: DT_INT32
    }
  }
  attr {
    key: "_output_shapes"
    value {
      list {
        shape {
        }
      }
    }
  }
}
node {
  name: "target_images/LessEqual_1/y"
  op: "Const"
  attr {
    key: "_output_shapes"
    value {
      list {
        shape {
        }
      }
    }
  }
  attr {
    key: "dtype"
    value {
      type: DT_INT32
    }
  }
  attr {
    key: "value"
    value {
      tensor {
        dtype: DT_INT32
        tensor_shape {
        }
        int_val: 286
      }
    }
  }
}
node {
  name: "target_images/LessEqual_1"
  op: "LessEqual"
  input: "target_images/add_1"
  input: "target_images/LessEqual_1/y"
  attr {
    key: "T"
    value {
      type: DT_INT32
    }
  }
  attr {
    key: "_output_shapes"
    value {
      list {
        shape {
        }
      }
    }
  }
}
node {
  name: "target_images/Assert_3/Const"
  op: "Const"
  attr {
    key: "_output_shapes"
    value {
      list {
        shape {
        }
      }
    }
  }
  attr {
    key: "dtype"
    value {
      type: DT_STRING
    }
  }
  attr {
    key: "value"
    value {
      tensor {
        dtype: DT_STRING
        tensor_shape {
        }
        string_val: "height must be >= target + offset."
      }
    }
  }
}
node {
  name: "target_images/Assert_3/Assert/data_0"
  op: "Const"
  attr {
    key: "_output_shapes"
    value {
      list {
        shape {
        }
      }
    }
  }
  attr {
    key: "dtype"
    value {
      type: DT_STRING
    }
  }
  attr {
    key: "value"
    value {
      tensor {
        dtype: DT_STRING
        tensor_shape {
        }
        string_val: "height must be >= target + offset."
      }
    }
  }
}
node {
  name: "target_images/Assert_3/Assert"
  op: "Assert"
  input: "target_images/LessEqual_1"
  input: "target_images/Assert_3/Assert/data_0"
  attr {
    key: "T"
    value {
      list {
        type: DT_STRING
      }
    }
  }
  attr {
    key: "summarize"
    value {
      i: 3
    }
  }
}
node {
  name: "target_images/control_dependency_1"
  op: "Identity"
  input: "target_images/ExpandDims_1"
  input: "^target_images/Assert/Assert"
  input: "^target_images/Assert_1/Assert"
  input: "^target_images/Assert_2/Assert"
  input: "^target_images/Assert_3/Assert"
  attr {
    key: "T"
    value {
      type: DT_FLOAT
    }
  }
  attr {
    key: "_class"
    value {
      list {
        s: "loc:@target_images/ExpandDims_1"
      }
    }
  }
  attr {
    key: "_output_shapes"
    value {
      list {
        shape {
          dim {
            size: 1
          }
          dim {
            size: 286
          }
          dim {
            size: 286
          }
          dim {
            size: 3
          }
        }
      }
    }
  }
}
node {
  name: "target_images/stack/0"
  op: "Const"
  attr {
    key: "_output_shapes"
    value {
      list {
        shape {
        }
      }
    }
  }
  attr {
    key: "dtype"
    value {
      type: DT_INT32
    }
  }
  attr {
    key: "value"
    value {
      tensor {
        dtype: DT_INT32
        tensor_shape {
        }
        int_val: 0
      }
    }
  }
}
node {
  name: "target_images/stack/3"
  op: "Const"
  attr {
    key: "_output_shapes"
    value {
      list {
        shape {
        }
      }
    }
  }
  attr {
    key: "dtype"
    value {
      type: DT_INT32
    }
  }
  attr {
    key: "value"
    value {
      tensor {
        dtype: DT_INT32
        tensor_shape {
        }
        int_val: 0
      }
    }
  }
}
node {
  name: "target_images/stack"
  op: "Pack"
  input: "target_images/stack/0"
  input: "target_images/strided_slice"
  input: "target_images/strided_slice_1"
  input: "target_images/stack/3"
  attr {
    key: "N"
    value {
      i: 4
    }
  }
  attr {
    key: "T"
    value {
      type: DT_INT32
    }
  }
  attr {
    key: "_output_shapes"
    value {
      list {
        shape {
          dim {
            size: 4
          }
        }
      }
    }
  }
  attr {
    key: "axis"
    value {
      i: 0
    }
  }
}
node {
  name: "target_images/stack_1"
  op: "Const"
  attr {
    key: "_output_shapes"
    value {
      list {
        shape {
          dim {
            size: 4
          }
        }
      }
    }
  }
  attr {
    key: "dtype"
    value {
      type: DT_INT32
    }
  }
  attr {
    key: "value"
    value {
      tensor {
        dtype: DT_INT32
        tensor_shape {
          dim {
            size: 4
          }
        }
        tensor_content: "\377\377\377\377\000\001\000\000\000\001\000\000\377\377\377\377"
      }
    }
  }
}
node {
  name: "target_images/Slice"
  op: "Slice"
  input: "target_images/control_dependency_1"
  input: "target_images/stack"
  input: "target_images/stack_1"
  attr {
    key: "Index"
    value {
      type: DT_INT32
    }
  }
  attr {
    key: "T"
    value {
      type: DT_FLOAT
    }
  }
  attr {
    key: "_output_shapes"
    value {
      list {
        shape {
          dim {
            size: 1
          }
          dim {
            size: 256
          }
          dim {
            size: 256
          }
          dim {
            size: 3
          }
        }
      }
    }
  }
}
node {
  name: "target_images/Squeeze_1"
  op: "Squeeze"
  input: "target_images/Slice"
  attr {
    key: "T"
    value {
      type: DT_FLOAT
    }
  }
  attr {
    key: "_output_shapes"
    value {
      list {
        shape {
          dim {
            size: 256
          }
          dim {
            size: 256
          }
          dim {
            size: 3
          }
        }
      }
    }
  }
  attr {
    key: "squeeze_dims"
    value {
      list {
        i: 0
      }
    }
  }
}
node {
  name: "batch/Const"
  op: "Const"
  attr {
    key: "_output_shapes"
    value {
      list {
        shape {
        }
      }
    }
  }
  attr {
    key: "dtype"
    value {
      type: DT_BOOL
    }
  }
  attr {
    key: "value"
    value {
      tensor {
        dtype: DT_BOOL
        tensor_shape {
        }
        bool_val: true
      }
    }
  }
}
node {
  name: "batch/fifo_queue"
  op: "FIFOQueueV2"
  attr {
    key: "_output_shapes"
    value {
      list {
        shape {
        }
      }
    }
  }
  attr {
    key: "capacity"
    value {
      i: 32
    }
  }
  attr {
    key: "component_types"
    value {
      list {
        type: DT_STRING
        type: DT_FLOAT
        type: DT_FLOAT
      }
    }
  }
  attr {
    key: "container"
    value {
      s: ""
    }
  }
  attr {
    key: "shapes"
    value {
      list {
        shape {
        }
        shape {
          dim {
            size: 256
          }
          dim {
            size: 256
          }
          dim {
            size: 3
          }
        }
        shape {
          dim {
            size: 256
          }
          dim {
            size: 256
          }
          dim {
            size: 3
          }
        }
      }
    }
  }
  attr {
    key: "shared_name"
    value {
      s: ""
    }
  }
}
node {
  name: "batch/fifo_queue_enqueue"
  op: "QueueEnqueueV2"
  input: "batch/fifo_queue"
  input: "load_images/ReaderReadV2"
  input: "input_images/Squeeze_1"
  input: "target_images/Squeeze_1"
  attr {
    key: "Tcomponents"
    value {
      list {
        type: DT_STRING
        type: DT_FLOAT
        type: DT_FLOAT
      }
    }
  }
  attr {
    key: "timeout_ms"
    value {
      i: -1
    }
  }
}
node {
  name: "batch/fifo_queue_Close"
  op: "QueueCloseV2"
  input: "batch/fifo_queue"
  attr {
    key: "cancel_pending_enqueues"
    value {
      b: false
    }
  }
}
node {
  name: "batch/fifo_queue_Close_1"
  op: "QueueCloseV2"
  input: "batch/fifo_queue"
  attr {
    key: "cancel_pending_enqueues"
    value {
      b: true
    }
  }
}
node {
  name: "batch/fifo_queue_Size"
  op: "QueueSizeV2"
  input: "batch/fifo_queue"
  attr {
    key: "_output_shapes"
    value {
      list {
        shape {
        }
      }
    }
  }
}
node {
  name: "batch/ToFloat"
  op: "Cast"
  input: "batch/fifo_queue_Size"
  attr {
    key: "DstT"
    value {
      type: DT_FLOAT
    }
  }
  attr {
    key: "SrcT"
    value {
      type: DT_INT32
    }
  }
  attr {
    key: "_output_shapes"
    value {
      list {
        shape {
        }
      }
    }
  }
}
node {
  name: "batch/mul/y"
  op: "Const"
  attr {
    key: "_output_shapes"
    value {
      list {
        shape {
        }
      }
    }
  }
  attr {
    key: "dtype"
    value {
      type: DT_FLOAT
    }
  }
  attr {
    key: "value"
    value {
      tensor {
        dtype: DT_FLOAT
        tensor_shape {
        }
        float_val: 0.03125
      }
    }
  }
}
node {
  name: "batch/mul"
  op: "Mul"
  input: "batch/ToFloat"
  input: "batch/mul/y"
  attr {
    key: "T"
    value {
      type: DT_FLOAT
    }
  }
  attr {
    key: "_output_shapes"
    value {
      list {
        shape {
        }
      }
    }
  }
}
node {
  name: "batch/fraction_of_32_full/tags"
  op: "Const"
  attr {
    key: "_output_shapes"
    value {
      list {
        shape {
        }
      }
    }
  }
  attr {
    key: "dtype"
    value {
      type: DT_STRING
    }
  }
  attr {
    key: "value"
    value {
      tensor {
        dtype: DT_STRING
        tensor_shape {
        }
        string_val: "batch/fraction_of_32_full"
      }
    }
  }
}
node {
  name: "batch/fraction_of_32_full"
  op: "ScalarSummary"
  input: "batch/fraction_of_32_full/tags"
  input: "batch/mul"
  attr {
    key: "T"
    value {
      type: DT_FLOAT
    }
  }
  attr {
    key: "_output_shapes"
    value {
      list {
        shape {
        }
      }
    }
  }
}
node {
  name: "batch/n"
  op: "Const"
  attr {
    key: "_output_shapes"
    value {
      list {
        shape {
        }
      }
    }
  }
  attr {
    key: "dtype"
    value {
      type: DT_INT32
    }
  }
  attr {
    key: "value"
    value {
      tensor {
        dtype: DT_INT32
        tensor_shape {
        }
        int_val: 1
      }
    }
  }
}
node {
  name: "batch"
  op: "QueueDequeueManyV2"
  input: "batch/fifo_queue"
  input: "batch/n"
  attr {
    key: "_output_shapes"
    value {
      list {
        shape {
          dim {
            size: 1
          }
        }
        shape {
          dim {
            size: 1
          }
          dim {
            size: 256
          }
          dim {
            size: 256
          }
          dim {
            size: 3
          }
        }
        shape {
          dim {
            size: 1
          }
          dim {
            size: 256
          }
          dim {
            size: 256
          }
          dim {
            size: 3
          }
        }
      }
    }
  }
  attr {
    key: "component_types"
    value {
      list {
        type: DT_STRING
        type: DT_FLOAT
        type: DT_FLOAT
      }
    }
  }
  attr {
    key: "timeout_ms"
    value {
      i: -1
    }
  }
}
node {
  name: "generator/encoder_1/conv2d/kernel/Initializer/random_normal/shape"
  op: "Const"
  attr {
    key: "_class"
    value {
      list {
        s: "loc:@generator/encoder_1/conv2d/kernel"
      }
    }
  }
  attr {
    key: "_output_shapes"
    value {
      list {
        shape {
          dim {
            size: 4
          }
        }
      }
    }
  }
  attr {
    key: "dtype"
    value {
      type: DT_INT32
    }
  }
  attr {
    key: "value"
    value {
      tensor {
        dtype: DT_INT32
        tensor_shape {
          dim {
            size: 4
          }
        }
        tensor_content: "\004\000\000\000\004\000\000\000\003\000\000\000@\000\000\000"
      }
    }
  }
}
node {
  name: "generator/encoder_1/conv2d/kernel/Initializer/random_normal/mean"
  op: "Const"
  attr {
    key: "_class"
    value {
      list {
        s: "loc:@generator/encoder_1/conv2d/kernel"
      }
    }
  }
  attr {
    key: "_output_shapes"
    value {
      list {
        shape {
        }
      }
    }
  }
  attr {
    key: "dtype"
    value {
      type: DT_FLOAT
    }
  }
  attr {
    key: "value"
    value {
      tensor {
        dtype: DT_FLOAT
        tensor_shape {
        }
        float_val: 0.0
      }
    }
  }
}
node {
  name: "generator/encoder_1/conv2d/kernel/Initializer/random_normal/stddev"
  op: "Const"
  attr {
    key: "_class"
    value {
      list {
        s: "loc:@generator/encoder_1/conv2d/kernel"
      }
    }
  }
  attr {
    key: "_output_shapes"
    value {
      list {
        shape {
        }
      }
    }
  }
  attr {
    key: "dtype"
    value {
      type: DT_FLOAT
    }
  }
  attr {
    key: "value"
    value {
      tensor {
        dtype: DT_FLOAT
        tensor_shape {
        }
        float_val: 0.019999999552965164
      }
    }
  }
}
node {
  name: "generator/encoder_1/conv2d/kernel/Initializer/random_normal/RandomStandardNormal"
  op: "RandomStandardNormal"
  input: "generator/encoder_1/conv2d/kernel/Initializer/random_normal/shape"
  attr {
    key: "T"
    value {
      type: DT_INT32
    }
  }
  attr {
    key: "_class"
    value {
      list {
        s: "loc:@generator/encoder_1/conv2d/kernel"
      }
    }
  }
  attr {
    key: "_output_shapes"
    value {
      list {
        shape {
          dim {
            size: 4
          }
          dim {
            size: 4
          }
          dim {
            size: 3
          }
          dim {
            size: 64
          }
        }
      }
    }
  }
  attr {
    key: "dtype"
    value {
      type: DT_FLOAT
    }
  }
  attr {
    key: "seed"
    value {
      i: 855892254
    }
  }
  attr {
    key: "seed2"
    value {
      i: 253
    }
  }
}
node {
  name: "generator/encoder_1/conv2d/kernel/Initializer/random_normal/mul"
  op: "Mul"
  input: "generator/encoder_1/conv2d/kernel/Initializer/random_normal/RandomStandardNormal"
  input: "generator/encoder_1/conv2d/kernel/Initializer/random_normal/stddev"
  attr {
    key: "T"
    value {
      type: DT_FLOAT
    }
  }
  attr {
    key: "_class"
    value {
      list {
        s: "loc:@generator/encoder_1/conv2d/kernel"
      }
    }
  }
  attr {
    key: "_output_shapes"
    value {
      list {
        shape {
          dim {
            size: 4
          }
          dim {
            size: 4
          }
          dim {
            size: 3
          }
          dim {
            size: 64
          }
        }
      }
    }
  }
}
node {
  name: "generator/encoder_1/conv2d/kernel/Initializer/random_normal"
  op: "Add"
  input: "generator/encoder_1/conv2d/kernel/Initializer/random_normal/mul"
  input: "generator/encoder_1/conv2d/kernel/Initializer/random_normal/mean"
  attr {
    key: "T"
    value {
      type: DT_FLOAT
    }
  }
  attr {
    key: "_class"
    value {
      list {
        s: "loc:@generator/encoder_1/conv2d/kernel"
      }
    }
  }
  attr {
    key: "_output_shapes"
    value {
      list {
        shape {
          dim {
            size: 4
          }
          dim {
            size: 4
          }
          dim {
            size: 3
          }
          dim {
            size: 64
          }
        }
      }
    }
  }
}
node {
  name: "generator/encoder_1/conv2d/kernel"
  op: "VariableV2"
  attr {
    key: "_class"
    value {
      list {
        s: "loc:@generator/encoder_1/conv2d/kernel"
      }
    }
  }
  attr {
    key: "_output_shapes"
    value {
      list {
        shape {
          dim {
            size: 4
          }
          dim {
            size: 4
          }
          dim {
            size: 3
          }
          dim {
            size: 64
          }
        }
      }
    }
  }
  attr {
    key: "container"
    value {
      s: ""
    }
  }
  attr {
    key: "dtype"
    value {
      type: DT_FLOAT
    }
  }
  attr {
    key: "shape"
    value {
      shape {
        dim {
          size: 4
        }
        dim {
          size: 4
        }
        dim {
          size: 3
        }
        dim {
          size: 64
        }
      }
    }
  }
  attr {
    key: "shared_name"
    value {
      s: ""
    }
  }
}
node {
  name: "generator/encoder_1/conv2d/kernel/Assign"
  op: "Assign"
  input: "generator/encoder_1/conv2d/kernel"
  input: "generator/encoder_1/conv2d/kernel/Initializer/random_normal"
  attr {
    key: "T"
    value {
      type: DT_FLOAT
    }
  }
  attr {
    key: "_class"
    value {
      list {
        s: "loc:@generator/encoder_1/conv2d/kernel"
      }
    }
  }
  attr {
    key: "_output_shapes"
    value {
      list {
        shape {
          dim {
            size: 4
          }
          dim {
            size: 4
          }
          dim {
            size: 3
          }
          dim {
            size: 64
          }
        }
      }
    }
  }
  attr {
    key: "use_locking"
    value {
      b: true
    }
  }
  attr {
    key: "validate_shape"
    value {
      b: true
    }
  }
}
node {
  name: "generator/encoder_1/conv2d/kernel/read"
  op: "Identity"
  input: "generator/encoder_1/conv2d/kernel"
  attr {
    key: "T"
    value {
      type: DT_FLOAT
    }
  }
  attr {
    key: "_class"
    value {
      list {
        s: "loc:@generator/encoder_1/conv2d/kernel"
      }
    }
  }
  attr {
    key: "_output_shapes"
    value {
      list {
        shape {
          dim {
            size: 4
          }
          dim {
            size: 4
          }
          dim {
            size: 3
          }
          dim {
            size: 64
          }
        }
      }
    }
  }
}
node {
  name: "generator/encoder_1/conv2d/bias/Initializer/zeros"
  op: "Const"
  attr {
    key: "_class"
    value {
      list {
        s: "loc:@generator/encoder_1/conv2d/bias"
      }
    }
  }
  attr {
    key: "_output_shapes"
    value {
      list {
        shape {
          dim {
            size: 64
          }
        }
      }
    }
  }
  attr {
    key: "dtype"
    value {
      type: DT_FLOAT
    }
  }
  attr {
    key: "value"
    value {
      tensor {
        dtype: DT_FLOAT
        tensor_shape {
          dim {
            size: 64
          }
        }
        float_val: 0.0
      }
    }
  }
}
node {
  name: "generator/encoder_1/conv2d/bias"
  op: "VariableV2"
  attr {
    key: "_class"
    value {
      list {
        s: "loc:@generator/encoder_1/conv2d/bias"
      }
    }
  }
  attr {
    key: "_output_shapes"
    value {
      list {
        shape {
          dim {
            size: 64
          }
        }
      }
    }
  }
  attr {
    key: "container"
    value {
      s: ""
    }
  }
  attr {
    key: "dtype"
    value {
      type: DT_FLOAT
    }
  }
  attr {
    key: "shape"
    value {
      shape {
        dim {
          size: 64
        }
      }
    }
  }
  attr {
    key: "shared_name"
    value {
      s: ""
    }
  }
}
node {
  name: "generator/encoder_1/conv2d/bias/Assign"
  op: "Assign"
  input: "generator/encoder_1/conv2d/bias"
  input: "generator/encoder_1/conv2d/bias/Initializer/zeros"
  attr {
    key: "T"
    value {
      type: DT_FLOAT
    }
  }
  attr {
    key: "_class"
    value {
      list {
        s: "loc:@generator/encoder_1/conv2d/bias"
      }
    }
  }
  attr {
    key: "_output_shapes"
    value {
      list {
        shape {
          dim {
            size: 64
          }
        }
      }
    }
  }
  attr {
    key: "use_locking"
    value {
      b: true
    }
  }
  attr {
    key: "validate_shape"
    value {
      b: true
    }
  }
}
node {
  name: "generator/encoder_1/conv2d/bias/read"
  op: "Identity"
  input: "generator/encoder_1/conv2d/bias"
  attr {
    key: "T"
    value {
      type: DT_FLOAT
    }
  }
  attr {
    key: "_class"
    value {
      list {
        s: "loc:@generator/encoder_1/conv2d/bias"
      }
    }
  }
  attr {
    key: "_output_shapes"
    value {
      list {
        shape {
          dim {
            size: 64
          }
        }
      }
    }
  }
}
node {
  name: "generator/encoder_1/conv2d/dilation_rate"
  op: "Const"
  attr {
    key: "_output_shapes"
    value {
      list {
        shape {
          dim {
            size: 2
          }
        }
      }
    }
  }
  attr {
    key: "dtype"
    value {
      type: DT_INT32
    }
  }
  attr {
    key: "value"
    value {
      tensor {
        dtype: DT_INT32
        tensor_shape {
          dim {
            size: 2
          }
        }
        tensor_content: "\001\000\000\000\001\000\000\000"
      }
    }
  }
}
node {
  name: "generator/encoder_1/conv2d/Conv2D"
  op: "Conv2D"
  input: "batch:1"
  input: "generator/encoder_1/conv2d/kernel/read"
  attr {
    key: "T"
    value {
      type: DT_FLOAT
    }
  }
  attr {
    key: "_output_shapes"
    value {
      list {
        shape {
          dim {
            size: 1
          }
          dim {
            size: 128
          }
          dim {
            size: 128
          }
          dim {
            size: 64
          }
        }
      }
    }
  }
  attr {
    key: "data_format"
    value {
      s: "NHWC"
    }
  }
  attr {
    key: "padding"
    value {
      s: "SAME"
    }
  }
  attr {
    key: "strides"
    value {
      list {
        i: 1
        i: 2
        i: 2
        i: 1
      }
    }
  }
  attr {
    key: "use_cudnn_on_gpu"
    value {
      b: true
    }
  }
}
node {
  name: "generator/encoder_1/conv2d/BiasAdd"
  op: "BiasAdd"
  input: "generator/encoder_1/conv2d/Conv2D"
  input: "generator/encoder_1/conv2d/bias/read"
  attr {
    key: "T"
    value {
      type: DT_FLOAT
    }
  }
  attr {
    key: "_output_shapes"
    value {
      list {
        shape {
          dim {
            size: 1
          }
          dim {
            size: 128
          }
          dim {
            size: 128
          }
          dim {
            size: 64
          }
        }
      }
    }
  }
  attr {
    key: "data_format"
    value {
      s: "NHWC"
    }
  }
}
node {
  name: "generator/encoder_2/lrelu/Identity"
  op: "Identity"
  input: "generator/encoder_1/conv2d/BiasAdd"
  attr {
    key: "T"
    value {
      type: DT_FLOAT
    }
  }
  attr {
    key: "_output_shapes"
    value {
      list {
        shape {
          dim {
            size: 1
          }
          dim {
            size: 128
          }
          dim {
            size: 128
          }
          dim {
            size: 64
          }
        }
      }
    }
  }
}
node {
  name: "generator/encoder_2/lrelu/mul/x"
  op: "Const"
  attr {
    key: "_output_shapes"
    value {
      list {
        shape {
        }
      }
    }
  }
  attr {
    key: "dtype"
    value {
      type: DT_FLOAT
    }
  }
  attr {
    key: "value"
    value {
      tensor {
        dtype: DT_FLOAT
        tensor_shape {
        }
        float_val: 0.6000000238418579
      }
    }
  }
}
node {
  name: "generator/encoder_2/lrelu/mul"
  op: "Mul"
  input: "generator/encoder_2/lrelu/mul/x"
  input: "generator/encoder_2/lrelu/Identity"
  attr {
    key: "T"
    value {
      type: DT_FLOAT
    }
  }
  attr {
    key: "_output_shapes"
    value {
      list {
        shape {
          dim {
            size: 1
          }
          dim {
            size: 128
          }
          dim {
            size: 128
          }
          dim {
            size: 64
          }
        }
      }
    }
  }
}
node {
  name: "generator/encoder_2/lrelu/Abs"
  op: "Abs"
  input: "generator/encoder_2/lrelu/Identity"
  attr {
    key: "T"
    value {
      type: DT_FLOAT
    }
  }
  attr {
    key: "_output_shapes"
    value {
      list {
        shape {
          dim {
            size: 1
          }
          dim {
            size: 128
          }
          dim {
            size: 128
          }
          dim {
            size: 64
          }
        }
      }
    }
  }
}
node {
  name: "generator/encoder_2/lrelu/mul_1/x"
  op: "Const"
  attr {
    key: "_output_shapes"
    value {
      list {
        shape {
        }
      }
    }
  }
  attr {
    key: "dtype"
    value {
      type: DT_FLOAT
    }
  }
  attr {
    key: "value"
    value {
      tensor {
        dtype: DT_FLOAT
        tensor_shape {
        }
        float_val: 0.4000000059604645
      }
    }
  }
}
node {
  name: "generator/encoder_2/lrelu/mul_1"
  op: "Mul"
  input: "generator/encoder_2/lrelu/mul_1/x"
  input: "generator/encoder_2/lrelu/Abs"
  attr {
    key: "T"
    value {
      type: DT_FLOAT
    }
  }
  attr {
    key: "_output_shapes"
    value {
      list {
        shape {
          dim {
            size: 1
          }
          dim {
            size: 128
          }
          dim {
            size: 128
          }
          dim {
            size: 64
          }
        }
      }
    }
  }
}
node {
  name: "generator/encoder_2/lrelu/add"
  op: "Add"
  input: "generator/encoder_2/lrelu/mul"
  input: "generator/encoder_2/lrelu/mul_1"
  attr {
    key: "T"
    value {
      type: DT_FLOAT
    }
  }
  attr {
    key: "_output_shapes"
    value {
      list {
        shape {
          dim {
            size: 1
          }
          dim {
            size: 128
          }
          dim {
            size: 128
          }
          dim {
            size: 64
          }
        }
      }
    }
  }
}
node {
  name: "generator/encoder_2/conv2d/kernel/Initializer/random_normal/shape"
  op: "Const"
  attr {
    key: "_class"
    value {
      list {
        s: "loc:@generator/encoder_2/conv2d/kernel"
      }
    }
  }
  attr {
    key: "_output_shapes"
    value {
      list {
        shape {
          dim {
            size: 4
          }
        }
      }
    }
  }
  attr {
    key: "dtype"
    value {
      type: DT_INT32
    }
  }
  attr {
    key: "value"
    value {
      tensor {
        dtype: DT_INT32
        tensor_shape {
          dim {
            size: 4
          }
        }
        tensor_content: "\004\000\000\000\004\000\000\000@\000\000\000\200\000\000\000"
      }
    }
  }
}
node {
  name: "generator/encoder_2/conv2d/kernel/Initializer/random_normal/mean"
  op: "Const"
  attr {
    key: "_class"
    value {
      list {
        s: "loc:@generator/encoder_2/conv2d/kernel"
      }
    }
  }
  attr {
    key: "_output_shapes"
    value {
      list {
        shape {
        }
      }
    }
  }
  attr {
    key: "dtype"
    value {
      type: DT_FLOAT
    }
  }
  attr {
    key: "value"
    value {
      tensor {
        dtype: DT_FLOAT
        tensor_shape {
        }
        float_val: 0.0
      }
    }
  }
}
node {
  name: "generator/encoder_2/conv2d/kernel/Initializer/random_normal/stddev"
  op: "Const"
  attr {
    key: "_class"
    value {
      list {
        s: "loc:@generator/encoder_2/conv2d/kernel"
      }
    }
  }
  attr {
    key: "_output_shapes"
    value {
      list {
        shape {
        }
      }
    }
  }
  attr {
    key: "dtype"
    value {
      type: DT_FLOAT
    }
  }
  attr {
    key: "value"
    value {
      tensor {
        dtype: DT_FLOAT
        tensor_shape {
        }
        float_val: 0.019999999552965164
      }
    }
  }
}
node {
  name: "generator/encoder_2/conv2d/kernel/Initializer/random_normal/RandomStandardNormal"
  op: "RandomStandardNormal"
  input: "generator/encoder_2/conv2d/kernel/Initializer/random_normal/shape"
  attr {
    key: "T"
    value {
      type: DT_INT32
    }
  }
  attr {
    key: "_class"
    value {
      list {
        s: "loc:@generator/encoder_2/conv2d/kernel"
      }
    }
  }
  attr {
    key: "_output_shapes"
    value {
      list {
        shape {
          dim {
            size: 4
          }
          dim {
            size: 4
          }
          dim {
            size: 64
          }
          dim {
            size: 128
          }
        }
      }
    }
  }
  attr {
    key: "dtype"
    value {
      type: DT_FLOAT
    }
  }
  attr {
    key: "seed"
    value {
      i: 855892254
    }
  }
  attr {
    key: "seed2"
    value {
      i: 276
    }
  }
}
node {
  name: "generator/encoder_2/conv2d/kernel/Initializer/random_normal/mul"
  op: "Mul"
  input: "generator/encoder_2/conv2d/kernel/Initializer/random_normal/RandomStandardNormal"
  input: "generator/encoder_2/conv2d/kernel/Initializer/random_normal/stddev"
  attr {
    key: "T"
    value {
      type: DT_FLOAT
    }
  }
  attr {
    key: "_class"
    value {
      list {
        s: "loc:@generator/encoder_2/conv2d/kernel"
      }
    }
  }
  attr {
    key: "_output_shapes"
    value {
      list {
        shape {
          dim {
            size: 4
          }
          dim {
            size: 4
          }
          dim {
            size: 64
          }
          dim {
            size: 128
          }
        }
      }
    }
  }
}
node {
  name: "generator/encoder_2/conv2d/kernel/Initializer/random_normal"
  op: "Add"
  input: "generator/encoder_2/conv2d/kernel/Initializer/random_normal/mul"
  input: "generator/encoder_2/conv2d/kernel/Initializer/random_normal/mean"
  attr {
    key: "T"
    value {
      type: DT_FLOAT
    }
  }
  attr {
    key: "_class"
    value {
      list {
        s: "loc:@generator/encoder_2/conv2d/kernel"
      }
    }
  }
  attr {
    key: "_output_shapes"
    value {
      list {
        shape {
          dim {
            size: 4
          }
          dim {
            size: 4
          }
          dim {
            size: 64
          }
          dim {
            size: 128
          }
        }
      }
    }
  }
}
node {
  name: "generator/encoder_2/conv2d/kernel"
  op: "VariableV2"
  attr {
    key: "_class"
    value {
      list {
        s: "loc:@generator/encoder_2/conv2d/kernel"
      }
    }
  }
  attr {
    key: "_output_shapes"
    value {
      list {
        shape {
          dim {
            size: 4
          }
          dim {
            size: 4
          }
          dim {
            size: 64
          }
          dim {
            size: 128
          }
        }
      }
    }
  }
  attr {
    key: "container"
    value {
      s: ""
    }
  }
  attr {
    key: "dtype"
    value {
      type: DT_FLOAT
    }
  }
  attr {
    key: "shape"
    value {
      shape {
        dim {
          size: 4
        }
        dim {
          size: 4
        }
        dim {
          size: 64
        }
        dim {
          size: 128
        }
      }
    }
  }
  attr {
    key: "shared_name"
    value {
      s: ""
    }
  }
}
node {
  name: "generator/encoder_2/conv2d/kernel/Assign"
  op: "Assign"
  input: "generator/encoder_2/conv2d/kernel"
  input: "generator/encoder_2/conv2d/kernel/Initializer/random_normal"
  attr {
    key: "T"
    value {
      type: DT_FLOAT
    }
  }
  attr {
    key: "_class"
    value {
      list {
        s: "loc:@generator/encoder_2/conv2d/kernel"
      }
    }
  }
  attr {
    key: "_output_shapes"
    value {
      list {
        shape {
          dim {
            size: 4
          }
          dim {
            size: 4
          }
          dim {
            size: 64
          }
          dim {
            size: 128
          }
        }
      }
    }
  }
  attr {
    key: "use_locking"
    value {
      b: true
    }
  }
  attr {
    key: "validate_shape"
    value {
      b: true
    }
  }
}
node {
  name: "generator/encoder_2/conv2d/kernel/read"
  op: "Identity"
  input: "generator/encoder_2/conv2d/kernel"
  attr {
    key: "T"
    value {
      type: DT_FLOAT
    }
  }
  attr {
    key: "_class"
    value {
      list {
        s: "loc:@generator/encoder_2/conv2d/kernel"
      }
    }
  }
  attr {
    key: "_output_shapes"
    value {
      list {
        shape {
          dim {
            size: 4
          }
          dim {
            size: 4
          }
          dim {
            size: 64
          }
          dim {
            size: 128
          }
        }
      }
    }
  }
}
node {
  name: "generator/encoder_2/conv2d/bias/Initializer/zeros"
  op: "Const"
  attr {
    key: "_class"
    value {
      list {
        s: "loc:@generator/encoder_2/conv2d/bias"
      }
    }
  }
  attr {
    key: "_output_shapes"
    value {
      list {
        shape {
          dim {
            size: 128
          }
        }
      }
    }
  }
  attr {
    key: "dtype"
    value {
      type: DT_FLOAT
    }
  }
  attr {
    key: "value"
    value {
      tensor {
        dtype: DT_FLOAT
        tensor_shape {
          dim {
            size: 128
          }
        }
        float_val: 0.0
      }
    }
  }
}
node {
  name: "generator/encoder_2/conv2d/bias"
  op: "VariableV2"
  attr {
    key: "_class"
    value {
      list {
        s: "loc:@generator/encoder_2/conv2d/bias"
      }
    }
  }
  attr {
    key: "_output_shapes"
    value {
      list {
        shape {
          dim {
            size: 128
          }
        }
      }
    }
  }
  attr {
    key: "container"
    value {
      s: ""
    }
  }
  attr {
    key: "dtype"
    value {
      type: DT_FLOAT
    }
  }
  attr {
    key: "shape"
    value {
      shape {
        dim {
          size: 128
        }
      }
    }
  }
  attr {
    key: "shared_name"
    value {
      s: ""
    }
  }
}
node {
  name: "generator/encoder_2/conv2d/bias/Assign"
  op: "Assign"
  input: "generator/encoder_2/conv2d/bias"
  input: "generator/encoder_2/conv2d/bias/Initializer/zeros"
  attr {
    key: "T"
    value {
      type: DT_FLOAT
    }
  }
  attr {
    key: "_class"
    value {
      list {
        s: "loc:@generator/encoder_2/conv2d/bias"
      }
    }
  }
  attr {
    key: "_output_shapes"
    value {
      list {
        shape {
          dim {
            size: 128
          }
        }
      }
    }
  }
  attr {
    key: "use_locking"
    value {
      b: true
    }
  }
  attr {
    key: "validate_shape"
    value {
      b: true
    }
  }
}
node {
  name: "generator/encoder_2/conv2d/bias/read"
  op: "Identity"
  input: "generator/encoder_2/conv2d/bias"
  attr {
    key: "T"
    value {
      type: DT_FLOAT
    }
  }
  attr {
    key: "_class"
    value {
      list {
        s: "loc:@generator/encoder_2/conv2d/bias"
      }
    }
  }
  attr {
    key: "_output_shapes"
    value {
      list {
        shape {
          dim {
            size: 128
          }
        }
      }
    }
  }
}
node {
  name: "generator/encoder_2/conv2d/dilation_rate"
  op: "Const"
  attr {
    key: "_output_shapes"
    value {
      list {
        shape {
          dim {
            size: 2
          }
        }
      }
    }
  }
  attr {
    key: "dtype"
    value {
      type: DT_INT32
    }
  }
  attr {
    key: "value"
    value {
      tensor {
        dtype: DT_INT32
        tensor_shape {
          dim {
            size: 2
          }
        }
        tensor_content: "\001\000\000\000\001\000\000\000"
      }
    }
  }
}
node {
  name: "generator/encoder_2/conv2d/Conv2D"
  op: "Conv2D"
  input: "generator/encoder_2/lrelu/add"
  input: "generator/encoder_2/conv2d/kernel/read"
  attr {
    key: "T"
    value {
      type: DT_FLOAT
    }
  }
  attr {
    key: "_output_shapes"
    value {
      list {
        shape {
          dim {
            size: 1
          }
          dim {
            size: 64
          }
          dim {
            size: 64
          }
          dim {
            size: 128
          }
        }
      }
    }
  }
  attr {
    key: "data_format"
    value {
      s: "NHWC"
    }
  }
  attr {
    key: "padding"
    value {
      s: "SAME"
    }
  }
  attr {
    key: "strides"
    value {
      list {
        i: 1
        i: 2
        i: 2
        i: 1
      }
    }
  }
  attr {
    key: "use_cudnn_on_gpu"
    value {
      b: true
    }
  }
}
node {
  name: "generator/encoder_2/conv2d/BiasAdd"
  op: "BiasAdd"
  input: "generator/encoder_2/conv2d/Conv2D"
  input: "generator/encoder_2/conv2d/bias/read"
  attr {
    key: "T"
    value {
      type: DT_FLOAT
    }
  }
  attr {
    key: "_output_shapes"
    value {
      list {
        shape {
          dim {
            size: 1
          }
          dim {
            size: 64
          }
          dim {
            size: 64
          }
          dim {
            size: 128
          }
        }
      }
    }
  }
  attr {
    key: "data_format"
    value {
      s: "NHWC"
    }
  }
}
node {
  name: "generator/encoder_2/batch_normalization/gamma/Initializer/random_normal/shape"
  op: "Const"
  attr {
    key: "_class"
    value {
      list {
        s: "loc:@generator/encoder_2/batch_normalization/gamma"
      }
    }
  }
  attr {
    key: "_output_shapes"
    value {
      list {
        shape {
          dim {
            size: 1
          }
        }
      }
    }
  }
  attr {
    key: "dtype"
    value {
      type: DT_INT32
    }
  }
  attr {
    key: "value"
    value {
      tensor {
        dtype: DT_INT32
        tensor_shape {
          dim {
            size: 1
          }
        }
        int_val: 128
      }
    }
  }
}
node {
  name: "generator/encoder_2/batch_normalization/gamma/Initializer/random_normal/mean"
  op: "Const"
  attr {
    key: "_class"
    value {
      list {
        s: "loc:@generator/encoder_2/batch_normalization/gamma"
      }
    }
  }
  attr {
    key: "_output_shapes"
    value {
      list {
        shape {
        }
      }
    }
  }
  attr {
    key: "dtype"
    value {
      type: DT_FLOAT
    }
  }
  attr {
    key: "value"
    value {
      tensor {
        dtype: DT_FLOAT
        tensor_shape {
        }
        float_val: 1.0
      }
    }
  }
}
node {
  name: "generator/encoder_2/batch_normalization/gamma/Initializer/random_normal/stddev"
  op: "Const"
  attr {
    key: "_class"
    value {
      list {
        s: "loc:@generator/encoder_2/batch_normalization/gamma"
      }
    }
  }
  attr {
    key: "_output_shapes"
    value {
      list {
        shape {
        }
      }
    }
  }
  attr {
    key: "dtype"
    value {
      type: DT_FLOAT
    }
  }
  attr {
    key: "value"
    value {
      tensor {
        dtype: DT_FLOAT
        tensor_shape {
        }
        float_val: 0.019999999552965164
      }
    }
  }
}
node {
  name: "generator/encoder_2/batch_normalization/gamma/Initializer/random_normal/RandomStandardNormal"
  op: "RandomStandardNormal"
  input: "generator/encoder_2/batch_normalization/gamma/Initializer/random_normal/shape"
  attr {
    key: "T"
    value {
      type: DT_INT32
    }
  }
  attr {
    key: "_class"
    value {
      list {
        s: "loc:@generator/encoder_2/batch_normalization/gamma"
      }
    }
  }
  attr {
    key: "_output_shapes"
    value {
      list {
        shape {
          dim {
            size: 128
          }
        }
      }
    }
  }
  attr {
    key: "dtype"
    value {
      type: DT_FLOAT
    }
  }
  attr {
    key: "seed"
    value {
      i: 855892254
    }
  }
  attr {
    key: "seed2"
    value {
      i: 292
    }
  }
}
node {
  name: "generator/encoder_2/batch_normalization/gamma/Initializer/random_normal/mul"
  op: "Mul"
  input: "generator/encoder_2/batch_normalization/gamma/Initializer/random_normal/RandomStandardNormal"
  input: "generator/encoder_2/batch_normalization/gamma/Initializer/random_normal/stddev"
  attr {
    key: "T"
    value {
      type: DT_FLOAT
    }
  }
  attr {
    key: "_class"
    value {
      list {
        s: "loc:@generator/encoder_2/batch_normalization/gamma"
      }
    }
  }
  attr {
    key: "_output_shapes"
    value {
      list {
        shape {
          dim {
            size: 128
          }
        }
      }
    }
  }
}
node {
  name: "generator/encoder_2/batch_normalization/gamma/Initializer/random_normal"
  op: "Add"
  input: "generator/encoder_2/batch_normalization/gamma/Initializer/random_normal/mul"
  input: "generator/encoder_2/batch_normalization/gamma/Initializer/random_normal/mean"
  attr {
    key: "T"
    value {
      type: DT_FLOAT
    }
  }
  attr {
    key: "_class"
    value {
      list {
        s: "loc:@generator/encoder_2/batch_normalization/gamma"
      }
    }
  }
  attr {
    key: "_output_shapes"
    value {
      list {
        shape {
          dim {
            size: 128
          }
        }
      }
    }
  }
}
node {
  name: "generator/encoder_2/batch_normalization/gamma"
  op: "VariableV2"
  attr {
    key: "_class"
    value {
      list {
        s: "loc:@generator/encoder_2/batch_normalization/gamma"
      }
    }
  }
  attr {
    key: "_output_shapes"
    value {
      list {
        shape {
          dim {
            size: 128
          }
        }
      }
    }
  }
  attr {
    key: "container"
    value {
      s: ""
    }
  }
  attr {
    key: "dtype"
    value {
      type: DT_FLOAT
    }
  }
  attr {
    key: "shape"
    value {
      shape {
        dim {
          size: 128
        }
      }
    }
  }
  attr {
    key: "shared_name"
    value {
      s: ""
    }
  }
}
node {
  name: "generator/encoder_2/batch_normalization/gamma/Assign"
  op: "Assign"
  input: "generator/encoder_2/batch_normalization/gamma"
  input: "generator/encoder_2/batch_normalization/gamma/Initializer/random_normal"
  attr {
    key: "T"
    value {
      type: DT_FLOAT
    }
  }
  attr {
    key: "_class"
    value {
      list {
        s: "loc:@generator/encoder_2/batch_normalization/gamma"
      }
    }
  }
  attr {
    key: "_output_shapes"
    value {
      list {
        shape {
          dim {
            size: 128
          }
        }
      }
    }
  }
  attr {
    key: "use_locking"
    value {
      b: true
    }
  }
  attr {
    key: "validate_shape"
    value {
      b: true
    }
  }
}
node {
  name: "generator/encoder_2/batch_normalization/gamma/read"
  op: "Identity"
  input: "generator/encoder_2/batch_normalization/gamma"
  attr {
    key: "T"
    value {
      type: DT_FLOAT
    }
  }
  attr {
    key: "_class"
    value {
      list {
        s: "loc:@generator/encoder_2/batch_normalization/gamma"
      }
    }
  }
  attr {
    key: "_output_shapes"
    value {
      list {
        shape {
          dim {
            size: 128
          }
        }
      }
    }
  }
}
node {
  name: "generator/encoder_2/batch_normalization/beta/Initializer/zeros"
  op: "Const"
  attr {
    key: "_class"
    value {
      list {
        s: "loc:@generator/encoder_2/batch_normalization/beta"
      }
    }
  }
  attr {
    key: "_output_shapes"
    value {
      list {
        shape {
          dim {
            size: 128
          }
        }
      }
    }
  }
  attr {
    key: "dtype"
    value {
      type: DT_FLOAT
    }
  }
  attr {
    key: "value"
    value {
      tensor {
        dtype: DT_FLOAT
        tensor_shape {
          dim {
            size: 128
          }
        }
        float_val: 0.0
      }
    }
  }
}
node {
  name: "generator/encoder_2/batch_normalization/beta"
  op: "VariableV2"
  attr {
    key: "_class"
    value {
      list {
        s: "loc:@generator/encoder_2/batch_normalization/beta"
      }
    }
  }
  attr {
    key: "_output_shapes"
    value {
      list {
        shape {
          dim {
            size: 128
          }
        }
      }
    }
  }
  attr {
    key: "container"
    value {
      s: ""
    }
  }
  attr {
    key: "dtype"
    value {
      type: DT_FLOAT
    }
  }
  attr {
    key: "shape"
    value {
      shape {
        dim {
          size: 128
        }
      }
    }
  }
  attr {
    key: "shared_name"
    value {
      s: ""
    }
  }
}
node {
  name: "generator/encoder_2/batch_normalization/beta/Assign"
  op: "Assign"
  input: "generator/encoder_2/batch_normalization/beta"
  input: "generator/encoder_2/batch_normalization/beta/Initializer/zeros"
  attr {
    key: "T"
    value {
      type: DT_FLOAT
    }
  }
  attr {
    key: "_class"
    value {
      list {
        s: "loc:@generator/encoder_2/batch_normalization/beta"
      }
    }
  }
  attr {
    key: "_output_shapes"
    value {
      list {
        shape {
          dim {
            size: 128
          }
        }
      }
    }
  }
  attr {
    key: "use_locking"
    value {
      b: true
    }
  }
  attr {
    key: "validate_shape"
    value {
      b: true
    }
  }
}
node {
  name: "generator/encoder_2/batch_normalization/beta/read"
  op: "Identity"
  input: "generator/encoder_2/batch_normalization/beta"
  attr {
    key: "T"
    value {
      type: DT_FLOAT
    }
  }
  attr {
    key: "_class"
    value {
      list {
        s: "loc:@generator/encoder_2/batch_normalization/beta"
      }
    }
  }
  attr {
    key: "_output_shapes"
    value {
      list {
        shape {
          dim {
            size: 128
          }
        }
      }
    }
  }
}
node {
  name: "generator/encoder_2/batch_normalization/moving_mean/Initializer/zeros"
  op: "Const"
  attr {
    key: "_class"
    value {
      list {
        s: "loc:@generator/encoder_2/batch_normalization/moving_mean"
      }
    }
  }
  attr {
    key: "_output_shapes"
    value {
      list {
        shape {
          dim {
            size: 128
          }
        }
      }
    }
  }
  attr {
    key: "dtype"
    value {
      type: DT_FLOAT
    }
  }
  attr {
    key: "value"
    value {
      tensor {
        dtype: DT_FLOAT
        tensor_shape {
          dim {
            size: 128
          }
        }
        float_val: 0.0
      }
    }
  }
}
node {
  name: "generator/encoder_2/batch_normalization/moving_mean"
  op: "VariableV2"
  attr {
    key: "_class"
    value {
      list {
        s: "loc:@generator/encoder_2/batch_normalization/moving_mean"
      }
    }
  }
  attr {
    key: "_output_shapes"
    value {
      list {
        shape {
          dim {
            size: 128
          }
        }
      }
    }
  }
  attr {
    key: "container"
    value {
      s: ""
    }
  }
  attr {
    key: "dtype"
    value {
      type: DT_FLOAT
    }
  }
  attr {
    key: "shape"
    value {
      shape {
        dim {
          size: 128
        }
      }
    }
  }
  attr {
    key: "shared_name"
    value {
      s: ""
    }
  }
}
node {
  name: "generator/encoder_2/batch_normalization/moving_mean/Assign"
  op: "Assign"
  input: "generator/encoder_2/batch_normalization/moving_mean"
  input: "generator/encoder_2/batch_normalization/moving_mean/Initializer/zeros"
  attr {
    key: "T"
    value {
      type: DT_FLOAT
    }
  }
  attr {
    key: "_class"
    value {
      list {
        s: "loc:@generator/encoder_2/batch_normalization/moving_mean"
      }
    }
  }
  attr {
    key: "_output_shapes"
    value {
      list {
        shape {
          dim {
            size: 128
          }
        }
      }
    }
  }
  attr {
    key: "use_locking"
    value {
      b: true
    }
  }
  attr {
    key: "validate_shape"
    value {
      b: true
    }
  }
}
node {
  name: "generator/encoder_2/batch_normalization/moving_mean/read"
  op: "Identity"
  input: "generator/encoder_2/batch_normalization/moving_mean"
  attr {
    key: "T"
    value {
      type: DT_FLOAT
    }
  }
  attr {
    key: "_class"
    value {
      list {
        s: "loc:@generator/encoder_2/batch_normalization/moving_mean"
      }
    }
  }
  attr {
    key: "_output_shapes"
    value {
      list {
        shape {
          dim {
            size: 128
          }
        }
      }
    }
  }
}
node {
  name: "generator/encoder_2/batch_normalization/moving_variance/Initializer/ones"
  op: "Const"
  attr {
    key: "_class"
    value {
      list {
        s: "loc:@generator/encoder_2/batch_normalization/moving_variance"
      }
    }
  }
  attr {
    key: "_output_shapes"
    value {
      list {
        shape {
          dim {
            size: 128
          }
        }
      }
    }
  }
  attr {
    key: "dtype"
    value {
      type: DT_FLOAT
    }
  }
  attr {
    key: "value"
    value {
      tensor {
        dtype: DT_FLOAT
        tensor_shape {
          dim {
            size: 128
          }
        }
        float_val: 1.0
      }
    }
  }
}
node {
  name: "generator/encoder_2/batch_normalization/moving_variance"
  op: "VariableV2"
  attr {
    key: "_class"
    value {
      list {
        s: "loc:@generator/encoder_2/batch_normalization/moving_variance"
      }
    }
  }
  attr {
    key: "_output_shapes"
    value {
      list {
        shape {
          dim {
            size: 128
          }
        }
      }
    }
  }
  attr {
    key: "container"
    value {
      s: ""
    }
  }
  attr {
    key: "dtype"
    value {
      type: DT_FLOAT
    }
  }
  attr {
    key: "shape"
    value {
      shape {
        dim {
          size: 128
        }
      }
    }
  }
  attr {
    key: "shared_name"
    value {
      s: ""
    }
  }
}
node {
  name: "generator/encoder_2/batch_normalization/moving_variance/Assign"
  op: "Assign"
  input: "generator/encoder_2/batch_normalization/moving_variance"
  input: "generator/encoder_2/batch_normalization/moving_variance/Initializer/ones"
  attr {
    key: "T"
    value {
      type: DT_FLOAT
    }
  }
  attr {
    key: "_class"
    value {
      list {
        s: "loc:@generator/encoder_2/batch_normalization/moving_variance"
      }
    }
  }
  attr {
    key: "_output_shapes"
…
        string_val: "discriminator/layer_2/batch_normalization/gamma/Adam"
        string_val: "discriminator/layer_2/batch_normalization/gamma/Adam_1"
        string_val: "discriminator/layer_2/batch_normalization/beta/Adam"
        string_val: "discriminator/layer_2/batch_normalization/beta/Adam_1"
        string_val: "discriminator/layer_3/conv2d/kernel/Adam"
        string_val: "discriminator/layer_3/conv2d/kernel/Adam_1"
        string_val: "discriminator/layer_3/conv2d/bias/Adam"
        string_val: "discriminator/layer_3/conv2d/bias/Adam_1"
        string_val: "discriminator/layer_3/batch_normalization/gamma/Adam"
        string_val: "discriminator/layer_3/batch_normalization/gamma/Adam_1"
        string_val: "discriminator/layer_3/batch_normalization/beta/Adam"
        string_val: "discriminator/layer_3/batch_normalization/beta/Adam_1"
        string_val: "discriminator/layer_4/conv2d/kernel/Adam"
        string_val: "discriminator/layer_4/conv2d/kernel/Adam_1"
        string_val: "discriminator/layer_4/conv2d/bias/Adam"
        string_val: "discriminator/layer_4/conv2d/bias/Adam_1"
        string_val: "discriminator/layer_4/batch_normalization/gamma/Adam"
        string_val: "discriminator/layer_4/batch_normalization/gamma/Adam_1"
        string_val: "discriminator/layer_4/batch_normalization/beta/Adam"
        string_val: "discriminator/layer_4/batch_normalization/beta/Adam_1"
        string_val: "discriminator/layer_5/conv2d/kernel/Adam"
        string_val: "discriminator/layer_5/conv2d/kernel/Adam_1"
        string_val: "discriminator/layer_5/conv2d/bias/Adam"
        string_val: "discriminator/layer_5/conv2d/bias/Adam_1"
        string_val: "generator_train/beta1_power"
        string_val: "generator_train/beta2_power"
        string_val: "generator/encoder_1/conv2d/kernel/Adam"
        string_val: "generator/encoder_1/conv2d/kernel/Adam_1"
        string_val: "generator/encoder_1/conv2d/bias/Adam"
        string_val: "generator/encoder_1/conv2d/bias/Adam_1"
        string_val: "generator/encoder_2/conv2d/kernel/Adam"
        string_val: "generator/encoder_2/conv2d/kernel/Adam_1"
        string_val: "generator/encoder_2/conv2d/bias/Adam"
        string_val: "generator/encoder_2/conv2d/bias/Adam_1"
        string_val: "generator/encoder_2/batch_normalization/gamma/Adam"
        string_val: "generator/encoder_2/batch_normalization/gamma/Adam_1"
        string_val: "generator/encoder_2/batch_normalization/beta/Adam"
        string_val: "generator/encoder_2/batch_normalization/beta/Adam_1"
        string_val: "generator/encoder_3/conv2d/kernel/Adam"
        string_val: "generator/encoder_3/conv2d/kernel/Adam_1"
        string_val: "generator/encoder_3/conv2d/bias/Adam"
        string_val: "generator/encoder_3/conv2d/bias/Adam_1"
        string_val: "generator/encoder_3/batch_normalization/gamma/Adam"
        string_val: "generator/encoder_3/batch_normalization/gamma/Adam_1"
        string_val: "generator/encoder_3/batch_normalization/beta/Adam"
        string_val: "generator/encoder_3/batch_normalization/beta/Adam_1"
        string_val: "generator/encoder_4/conv2d/kernel/Adam"
        string_val: "generator/encoder_4/conv2d/kernel/Adam_1"
        string_val: "generator/encoder_4/conv2d/bias/Adam"
        string_val: "generator/encoder_4/conv2d/bias/Adam_1"
        string_val: "generator/encoder_4/batch_normalization/gamma/Adam"
        string_val: "generator/encoder_4/batch_normalization/gamma/Adam_1"
        string_val: "generator/encoder_4/batch_normalization/beta/Adam"
        string_val: "generator/encoder_4/batch_normalization/beta/Adam_1"
        string_val: "generator/encoder_5/conv2d/kernel/Adam"
        string_val: "generator/encoder_5/conv2d/kernel/Adam_1"
        string_val: "generator/encoder_5/conv2d/bias/Adam"
        string_val: "generator/encoder_5/conv2d/bias/Adam_1"
        string_val: "generator/encoder_5/batch_normalization/gamma/Adam"
        string_val: "generator/encoder_5/batch_normalization/gamma/Adam_1"
        string_val: "generator/encoder_5/batch_normalization/beta/Adam"
        string_val: "generator/encoder_5/batch_normalization/beta/Adam_1"
        string_val: "generator/encoder_6/conv2d/kernel/Adam"
        string_val: "generator/encoder_6/conv2d/kernel/Adam_1"
        string_val: "generator/encoder_6/conv2d/bias/Adam"
        string_val: "generator/encoder_6/conv2d/bias/Adam_1"
        string_val: "generator/encoder_6/batch_normalization/gamma/Adam"
        string_val: "generator/encoder_6/batch_normalization/gamma/Adam_1"
        string_val: "generator/encoder_6/batch_normalization/beta/Adam"
        string_val: "generator/encoder_6/batch_normalization/beta/Adam_1"
        string_val: "generator/encoder_7/conv2d/kernel/Adam"
        string_val: "generator/encoder_7/conv2d/kernel/Adam_1"
        string_val: "generator/encoder_7/conv2d/bias/Adam"
        string_val: "generator/encoder_7/conv2d/bias/Adam_1"
        string_val: "generator/encoder_7/batch_normalization/gamma/Adam"
        string_val: "generator/encoder_7/batch_normalization/gamma/Adam_1"
        string_val: "generator/encoder_7/batch_normalization/beta/Adam"
        string_val: "generator/encoder_7/batch_normalization/beta/Adam_1"
        string_val: "generator/encoder_8/conv2d/kernel/Adam"
        string_val: "generator/encoder_8/conv2d/kernel/Adam_1"
        string_val: "generator/encoder_8/conv2d/bias/Adam"
        string_val: "generator/encoder_8/conv2d/bias/Adam_1"
        string_val: "generator/encoder_8/batch_normalization/gamma/Adam"
        string_val: "generator/encoder_8/batch_normalization/gamma/Adam_1"
        string_val: "generator/encoder_8/batch_normalization/beta/Adam"
        string_val: "generator/encoder_8/batch_normalization/beta/Adam_1"
        string_val: "generator/decoder_8/conv2d_transpose/kernel/Adam"
        string_val: "generator/decoder_8/conv2d_transpose/kernel/Adam_1"
        string_val: "generator/decoder_8/conv2d_transpose/bias/Adam"
        string_val: "generator/decoder_8/conv2d_transpose/bias/Adam_1"
        string_val: "generator/decoder_8/batch_normalization/gamma/Adam"
        string_val: "generator/decoder_8/batch_normalization/gamma/Adam_1"
        string_val: "generator/decoder_8/batch_normalization/beta/Adam"
        string_val: "generator/decoder_8/batch_normalization/beta/Adam_1"
        string_val: "generator/decoder_7/conv2d_transpose/kernel/Adam"
        string_val: "generator/decoder_7/conv2d_transpose/kernel/Adam_1"
        string_val: "generator/decoder_7/conv2d_transpose/bias/Adam"
        string_val: "generator/decoder_7/conv2d_transpose/bias/Adam_1"
        string_val: "generator/decoder_7/batch_normalization/gamma/Adam"
        string_val: "generator/decoder_7/batch_normalization/gamma/Adam_1"
        string_val: "generator/decoder_7/batch_normalization/beta/Adam"
        string_val: "generator/decoder_7/batch_normalization/beta/Adam_1"
        string_val: "generator/decoder_6/conv2d_transpose/kernel/Adam"
        string_val: "generator/decoder_6/conv2d_transpose/kernel/Adam_1"
        string_val: "generator/decoder_6/conv2d_transpose/bias/Adam"
        string_val: "generator/decoder_6/conv2d_transpose/bias/Adam_1"
        string_val: "generator/decoder_6/batch_normalization/gamma/Adam"
        string_val: "generator/decoder_6/batch_normalization/gamma/Adam_1"
        string_val: "generator/decoder_6/batch_normalization/beta/Adam"
        string_val: "generator/decoder_6/batch_normalization/beta/Adam_1"
        string_val: "generator/decoder_5/conv2d_transpose/kernel/Adam"
        string_val: "generator/decoder_5/conv2d_transpose/kernel/Adam_1"
        string_val: "generator/decoder_5/conv2d_transpose/bias/Adam"
        string_val: "generator/decoder_5/conv2d_transpose/bias/Adam_1"
        string_val: "generator/decoder_5/batch_normalization/gamma/Adam"
        string_val: "generator/decoder_5/batch_normalization/gamma/Adam_1"
        string_val: "generator/decoder_5/batch_normalization/beta/Adam"
        string_val: "generator/decoder_5/batch_normalization/beta/Adam_1"
        string_val: "generator/decoder_4/conv2d_transpose/kernel/Adam"
        string_val: "generator/decoder_4/conv2d_transpose/kernel/Adam_1"
        string_val: "generator/decoder_4/conv2d_transpose/bias/Adam"
        string_val: "generator/decoder_4/conv2d_transpose/bias/Adam_1"
        string_val: "generator/decoder_4/batch_normalization/gamma/Adam"
        string_val: "generator/decoder_4/batch_normalization/gamma/Adam_1"
        string_val: "generator/decoder_4/batch_normalization/beta/Adam"
        string_val: "generator/decoder_4/batch_normalization/beta/Adam_1"
        string_val: "generator/decoder_3/conv2d_transpose/kernel/Adam"
        string_val: "generator/decoder_3/conv2d_transpose/kernel/Adam_1"
        string_val: "generator/decoder_3/conv2d_transpose/bias/Adam"
        string_val: "generator/decoder_3/conv2d_transpose/bias/Adam_1"
        string_val: "generator/decoder_3/batch_normalization/gamma/Adam"
        string_val: "generator/decoder_3/batch_normalization/gamma/Adam_1"
        string_val: "generator/decoder_3/batch_normalization/beta/Adam"
        string_val: "generator/decoder_3/batch_normalization/beta/Adam_1"
        string_val: "generator/decoder_2/conv2d_transpose/kernel/Adam"
        string_val: "generator/decoder_2/conv2d_transpose/kernel/Adam_1"
        string_val: "generator/decoder_2/conv2d_transpose/bias/Adam"
        string_val: "generator/decoder_2/conv2d_transpose/bias/Adam_1"
        string_val: "generator/decoder_2/batch_normalization/gamma/Adam"
        string_val: "generator/decoder_2/batch_normalization/gamma/Adam_1"
        string_val: "generator/decoder_2/batch_normalization/beta/Adam"
        string_val: "generator/decoder_2/batch_normalization/beta/Adam_1"
        string_val: "generator/decoder_1/conv2d_transpose/kernel/Adam"
        string_val: "generator/decoder_1/conv2d_transpose/kernel/Adam_1"
        string_val: "generator/decoder_1/conv2d_transpose/bias/Adam"
        string_val: "generator/decoder_1/conv2d_transpose/bias/Adam_1"
        string_val: "discriminator_loss/Mean/ExponentialMovingAverage"
        string_val: "generator_loss/Mean/ExponentialMovingAverage"
        string_val: "generator_loss/Mean_1/ExponentialMovingAverage"
        string_val: "global_step"
      }
    }
  }
}
node {
  name: "report_uninitialized_variables/boolean_mask/Shape"
  op: "Const"
  device: "/device:CPU:0"
  attr {
    key: "_output_shapes"
    value {
      list {
        shape {
          dim {
            size: 1
          }
        }
      }
    }
  }
  attr {
    key: "dtype"
    value {
      type: DT_INT32
    }
  }
  attr {
    key: "value"
    value {
      tensor {
        dtype: DT_INT32
        tensor_shape {
          dim {
            size: 1
          }
        }
        int_val: 270
      }
    }
  }
}
node {
  name: "report_uninitialized_variables/boolean_mask/strided_slice/stack"
  op: "Const"
  device: "/device:CPU:0"
  attr {
    key: "_output_shapes"
    value {
      list {
        shape {
          dim {
            size: 1
          }
        }
      }
    }
  }
  attr {
    key: "dtype"
    value {
      type: DT_INT32
    }
  }
  attr {
    key: "value"
    value {
      tensor {
        dtype: DT_INT32
        tensor_shape {
          dim {
            size: 1
          }
        }
        int_val: 0
      }
    }
  }
}
node {
  name: "report_uninitialized_variables/boolean_mask/strided_slice/stack_1"
  op: "Const"
  device: "/device:CPU:0"
  attr {
    key: "_output_shapes"
    value {
      list {
        shape {
          dim {
            size: 1
          }
        }
      }
    }
  }
  attr {
    key: "dtype"
    value {
      type: DT_INT32
    }
  }
  attr {
    key: "value"
    value {
      tensor {
        dtype: DT_INT32
        tensor_shape {
          dim {
            size: 1
          }
        }
        int_val: 1
      }
    }
  }
}
node {
  name: "report_uninitialized_variables/boolean_mask/strided_slice/stack_2"
  op: "Const"
  device: "/device:CPU:0"
  attr {
    key: "_output_shapes"
    value {
      list {
        shape {
          dim {
            size: 1
          }
        }
      }
    }
  }
  attr {
    key: "dtype"
    value {
      type: DT_INT32
    }
  }
  attr {
    key: "value"
    value {
      tensor {
        dtype: DT_INT32
        tensor_shape {
          dim {
            size: 1
          }
        }
        int_val: 1
      }
    }
  }
}
node {
  name: "report_uninitialized_variables/boolean_mask/strided_slice"
  op: "StridedSlice"
  input: "report_uninitialized_variables/boolean_mask/Shape"
  input: "report_uninitialized_variables/boolean_mask/strided_slice/stack"
  input: "report_uninitialized_variables/boolean_mask/strided_slice/stack_1"
  input: "report_uninitialized_variables/boolean_mask/strided_slice/stack_2"
  device: "/device:CPU:0"
  attr {
    key: "Index"
    value {
      type: DT_INT32
    }
  }
  attr {
    key: "T"
    value {
      type: DT_INT32
    }
  }
  attr {
    key: "_output_shapes"
    value {
      list {
        shape {
          dim {
            size: 1
          }
        }
      }
    }
  }
  attr {
    key: "begin_mask"
    value {
      i: 1
    }
  }
  attr {
    key: "ellipsis_mask"
    value {
      i: 0
    }
  }
  attr {
    key: "end_mask"
    value {
      i: 0
    }
  }
  attr {
    key: "new_axis_mask"
    value {
      i: 0
    }
  }
  attr {
    key: "shrink_axis_mask"
    value {
      i: 0
    }
  }
}
node {
  name: "report_uninitialized_variables/boolean_mask/Prod/reduction_indices"
  op: "Const"
  device: "/device:CPU:0"
  attr {
    key: "_output_shapes"
    value {
      list {
        shape {
          dim {
            size: 1
          }
        }
      }
    }
  }
  attr {
    key: "dtype"
    value {
      type: DT_INT32
    }
  }
  attr {
    key: "value"
    value {
      tensor {
        dtype: DT_INT32
        tensor_shape {
          dim {
            size: 1
          }
        }
        int_val: 0
      }
    }
  }
}
node {
  name: "report_uninitialized_variables/boolean_mask/Prod"
  op: "Prod"
  input: "report_uninitialized_variables/boolean_mask/strided_slice"
  input: "report_uninitialized_variables/boolean_mask/Prod/reduction_indices"
  device: "/device:CPU:0"
  attr {
    key: "T"
    value {
      type: DT_INT32
    }
  }
  attr {
    key: "Tidx"
    value {
      type: DT_INT32
    }
  }
  attr {
    key: "_output_shapes"
    value {
      list {
        shape {
        }
      }
    }
  }
  attr {
    key: "keep_dims"
    value {
      b: false
    }
  }
}
node {
  name: "report_uninitialized_variables/boolean_mask/Shape_1"
  op: "Const"
  device: "/device:CPU:0"
  attr {
    key: "_output_shapes"
    value {
      list {
        shape {
          dim {
            size: 1
          }
        }
      }
    }
  }
  attr {
    key: "dtype"
    value {
      type: DT_INT32
    }
  }
  attr {
    key: "value"
    value {
      tensor {
        dtype: DT_INT32
        tensor_shape {
          dim {
            size: 1
          }
        }
        int_val: 270
      }
    }
  }
}
node {
  name: "report_uninitialized_variables/boolean_mask/strided_slice_1/stack"
  op: "Const"
  device: "/device:CPU:0"
  attr {
    key: "_output_shapes"
    value {
      list {
        shape {
          dim {
            size: 1
          }
        }
      }
    }
  }
  attr {
    key: "dtype"
    value {
      type: DT_INT32
    }
  }
  attr {
    key: "value"
    value {
      tensor {
        dtype: DT_INT32
        tensor_shape {
          dim {
            size: 1
          }
        }
        int_val: 1
      }
    }
  }
}
node {
  name: "report_uninitialized_variables/boolean_mask/strided_slice_1/stack_1"
  op: "Const"
  device: "/device:CPU:0"
  attr {
    key: "_output_shapes"
    value {
      list {
        shape {
          dim {
            size: 1
          }
        }
      }
    }
  }
  attr {
    key: "dtype"
    value {
      type: DT_INT32
    }
  }
  attr {
    key: "value"
    value {
      tensor {
        dtype: DT_INT32
        tensor_shape {
          dim {
            size: 1
          }
        }
        int_val: 0
      }
    }
  }
}
node {
  name: "report_uninitialized_variables/boolean_mask/strided_slice_1/stack_2"
  op: "Const"
  device: "/device:CPU:0"
  attr {
    key: "_output_shapes"
    value {
      list {
        shape {
          dim {
            size: 1
          }
        }
      }
    }
  }
  attr {
    key: "dtype"
    value {
      type: DT_INT32
    }
  }
  attr {
    key: "value"
    value {
      tensor {
        dtype: DT_INT32
        tensor_shape {
          dim {
            size: 1
          }
        }
        int_val: 1
      }
    }
  }
}
node {
  name: "report_uninitialized_variables/boolean_mask/strided_slice_1"
  op: "StridedSlice"
  input: "report_uninitialized_variables/boolean_mask/Shape_1"
  input: "report_uninitialized_variables/boolean_mask/strided_slice_1/stack"
  input: "report_uninitialized_variables/boolean_mask/strided_slice_1/stack_1"
  input: "report_uninitialized_variables/boolean_mask/strided_slice_1/stack_2"
  device: "/device:CPU:0"
  attr {
    key: "Index"
    value {
      type: DT_INT32
    }
  }
  attr {
    key: "T"
    value {
      type: DT_INT32
    }
  }
  attr {
    key: "_output_shapes"
    value {
      list {
        shape {
          dim {
          }
        }
      }
    }
  }
  attr {
    key: "begin_mask"
    value {
      i: 0
    }
  }
  attr {
    key: "ellipsis_mask"
    value {
      i: 0
    }
  }
  attr {
    key: "end_mask"
    value {
      i: 1
    }
  }
  attr {
    key: "new_axis_mask"
    value {
      i: 0
    }
  }
  attr {
    key: "shrink_axis_mask"
    value {
      i: 0
    }
  }
}
node {
  name: "report_uninitialized_variables/boolean_mask/concat/values_0"
  op: "Pack"
  input: "report_uninitialized_variables/boolean_mask/Prod"
  device: "/device:CPU:0"
  attr {
    key: "N"
    value {
      i: 1
    }
  }
  attr {
    key: "T"
    value {
      type: DT_INT32
    }
  }
  attr {
    key: "_output_shapes"
    value {
      list {
        shape {
          dim {
            size: 1
          }
        }
      }
    }
  }
  attr {
    key: "axis"
    value {
      i: 0
    }
  }
}
node {
  name: "report_uninitialized_variables/boolean_mask/concat/axis"
  op: "Const"
  device: "/device:CPU:0"
  attr {
    key: "_output_shapes"
    value {
      list {
        shape {
        }
      }
    }
  }
  attr {
    key: "dtype"
    value {
      type: DT_INT32
    }
  }
  attr {
    key: "value"
    value {
      tensor {
        dtype: DT_INT32
        tensor_shape {
        }
        int_val: 0
      }
    }
  }
}
node {
  name: "report_uninitialized_variables/boolean_mask/concat"
  op: "ConcatV2"
  input: "report_uninitialized_variables/boolean_mask/concat/values_0"
  input: "report_uninitialized_variables/boolean_mask/strided_slice_1"
  input: "report_uninitialized_variables/boolean_mask/concat/axis"
  device: "/device:CPU:0"
  attr {
    key: "N"
    value {
      i: 2
    }
  }
  attr {
    key: "T"
    value {
      type: DT_INT32
    }
  }
  attr {
    key: "Tidx"
    value {
      type: DT_INT32
    }
  }
  attr {
    key: "_output_shapes"
    value {
      list {
        shape {
          dim {
            size: 1
          }
        }
      }
    }
  }
}
node {
  name: "report_uninitialized_variables/boolean_mask/Reshape"
  op: "Reshape"
  input: "report_uninitialized_variables/Const"
  input: "report_uninitialized_variables/boolean_mask/concat"
  device: "/device:CPU:0"
  attr {
    key: "T"
    value {
      type: DT_STRING
    }
  }
  attr {
    key: "Tshape"
    value {
      type: DT_INT32
    }
  }
  attr {
    key: "_output_shapes"
    value {
      list {
        shape {
          dim {
            size: 270
          }
        }
      }
    }
  }
}
node {
  name: "report_uninitialized_variables/boolean_mask/Reshape_1/shape"
  op: "Const"
  device: "/device:CPU:0"
  attr {
    key: "_output_shapes"
    value {
      list {
        shape {
          dim {
            size: 1
          }
        }
      }
    }
  }
  attr {
    key: "dtype"
    value {
      type: DT_INT32
    }
  }
  attr {
    key: "value"
    value {
      tensor {
        dtype: DT_INT32
        tensor_shape {
          dim {
            size: 1
          }
        }
        int_val: -1
      }
    }
  }
}
node {
  name: "report_uninitialized_variables/boolean_mask/Reshape_1"
  op: "Reshape"
  input: "report_uninitialized_variables/LogicalNot"
  input: "report_uninitialized_variables/boolean_mask/Reshape_1/shape"
  device: "/device:CPU:0"
  attr {
    key: "T"
    value {
      type: DT_BOOL
    }
  }
  attr {
    key: "Tshape"
    value {
      type: DT_INT32
    }
  }
  attr {
    key: "_output_shapes"
    value {
      list {
        shape {
          dim {
            size: 270
          }
        }
      }
    }
  }
}
node {
  name: "report_uninitialized_variables/boolean_mask/Where"
  op: "Where"
  input: "report_uninitialized_variables/boolean_mask/Reshape_1"
  device: "/device:CPU:0"
  attr {
    key: "_output_shapes"
    value {
      list {
        shape {
          dim {
            size: -1
          }
          dim {
            size: 1
          }
        }
      }
    }
  }
}
node {
  name: "report_uninitialized_variables/boolean_mask/Squeeze"
  op: "Squeeze"
  input: "report_uninitialized_variables/boolean_mask/Where"
  device: "/device:CPU:0"
  attr {
    key: "T"
    value {
      type: DT_INT64
    }
  }
  attr {
    key: "_output_shapes"
    value {
      list {
        shape {
          dim {
            size: -1
          }
        }
      }
    }
  }
  attr {
    key: "squeeze_dims"
    value {
      list {
        i: 1
      }
    }
  }
}
node {
  name: "report_uninitialized_variables/boolean_mask/Gather"
  op: "Gather"
  input: "report_uninitialized_variables/boolean_mask/Reshape"
  input: "report_uninitialized_variables/boolean_mask/Squeeze"
  device: "/device:CPU:0"
  attr {
    key: "Tindices"
    value {
      type: DT_INT64
    }
  }
  attr {
    key: "Tparams"
    value {
      type: DT_STRING
    }
  }
  attr {
    key: "_output_shapes"
    value {
      list {
        shape {
          dim {
            size: -1
          }
        }
      }
    }
  }
  attr {
    key: "validate_indices"
    value {
      b: true
    }
  }
}
node {
  name: "init"
  op: "NoOp"
  input: "^generator/encoder_1/conv2d/kernel/Assign"
  input: "^generator/encoder_1/conv2d/bias/Assign"
  input: "^generator/encoder_2/conv2d/kernel/Assign"
  input: "^generator/encoder_2/conv2d/bias/Assign"
  input: "^generator/encoder_2/batch_normalization/gamma/Assign"
  input: "^generator/encoder_2/batch_normalization/beta/Assign"
  input: "^generator/encoder_2/batch_normalization/moving_mean/Assign"
  input: "^generator/encoder_2/batch_normalization/moving_variance/Assign"
  input: "^generator/encoder_3/conv2d/kernel/Assign"
  input: "^generator/encoder_3/conv2d/bias/Assign"
  input: "^generator/encoder_3/batch_normalization/gamma/Assign"
  input: "^generator/encoder_3/batch_normalization/beta/Assign"
  input: "^generator/encoder_3/batch_normalization/moving_mean/Assign"
  input: "^generator/encoder_3/batch_normalization/moving_variance/Assign"
  input: "^generator/encoder_4/conv2d/kernel/Assign"
  input: "^generator/encoder_4/conv2d/bias/Assign"
  input: "^generator/encoder_4/batch_normalization/gamma/Assign"
  input: "^generator/encoder_4/batch_normalization/beta/Assign"
  input: "^generator/encoder_4/batch_normalization/moving_mean/Assign"
  input: "^generator/encoder_4/batch_normalization/moving_variance/Assign"
  input: "^generator/encoder_5/conv2d/kernel/Assign"
  input: "^generator/encoder_5/conv2d/bias/Assign"
  input: "^generator/encoder_5/batch_normalization/gamma/Assign"
  input: "^generator/encoder_5/batch_normalization/beta/Assign"
  input: "^generator/encoder_5/batch_normalization/moving_mean/Assign"
  input: "^generator/encoder_5/batch_normalization/moving_variance/Assign"
  input: "^generator/encoder_6/conv2d/kernel/Assign"
  input: "^generator/encoder_6/conv2d/bias/Assign"
  input: "^generator/encoder_6/batch_normalization/gamma/Assign"
  input: "^generator/encoder_6/batch_normalization/beta/Assign"
  input: "^generator/encoder_6/batch_normalization/moving_mean/Assign"
  input: "^generator/encoder_6/batch_normalization/moving_variance/Assign"
  input: "^generator/encoder_7/conv2d/kernel/Assign"
  input: "^generator/encoder_7/conv2d/bias/Assign"
  input: "^generator/encoder_7/batch_normalization/gamma/Assign"
  input: "^generator/encoder_7/batch_normalization/beta/Assign"
  input: "^generator/encoder_7/batch_normalization/moving_mean/Assign"
  input: "^generator/encoder_7/batch_normalization/moving_variance/Assign"
  input: "^generator/encoder_8/conv2d/kernel/Assign"
  input: "^generator/encoder_8/conv2d/bias/Assign"
  input: "^generator/encoder_8/batch_normalization/gamma/Assign"
  input: "^generator/encoder_8/batch_normalization/beta/Assign"
  input: "^generator/encoder_8/batch_normalization/moving_mean/Assign"
  input: "^generator/encoder_8/batch_normalization/moving_variance/Assign"
  input: "^generator/decoder_8/conv2d_transpose/kernel/Assign"
  input: "^generator/decoder_8/conv2d_transpose/bias/Assign"
  input: "^generator/decoder_8/batch_normalization/gamma/Assign"
  input: "^generator/decoder_8/batch_normalization/beta/Assign"
  input: "^generator/decoder_8/batch_normalization/moving_mean/Assign"
  input: "^generator/decoder_8/batch_normalization/moving_variance/Assign"
  input: "^generator/decoder_7/conv2d_transpose/kernel/Assign"
  input: "^generator/decoder_7/conv2d_transpose/bias/Assign"
  input: "^generator/decoder_7/batch_normalization/gamma/Assign"
  input: "^generator/decoder_7/batch_normalization/beta/Assign"
  input: "^generator/decoder_7/batch_normalization/moving_mean/Assign"
  input: "^generator/decoder_7/batch_normalization/moving_variance/Assign"
  input: "^generator/decoder_6/conv2d_transpose/kernel/Assign"
  input: "^generator/decoder_6/conv2d_transpose/bias/Assign"
  input: "^generator/decoder_6/batch_normalization/gamma/Assign"
  input: "^generator/decoder_6/batch_normalization/beta/Assign"
  input: "^generator/decoder_6/batch_normalization/moving_mean/Assign"
  input: "^generator/decoder_6/batch_normalization/moving_variance/Assign"
  input: "^generator/decoder_5/conv2d_transpose/kernel/Assign"
  input: "^generator/decoder_5/conv2d_transpose/bias/Assign"
  input: "^generator/decoder_5/batch_normalization/gamma/Assign"
  input: "^generator/decoder_5/batch_normalization/beta/Assign"
  input: "^generator/decoder_5/batch_normalization/moving_mean/Assign"
  input: "^generator/decoder_5/batch_normalization/moving_variance/Assign"
  input: "^generator/decoder_4/conv2d_transpose/kernel/Assign"
  input: "^generator/decoder_4/conv2d_transpose/bias/Assign"
  input: "^generator/decoder_4/batch_normalization/gamma/Assign"
  input: "^generator/decoder_4/batch_normalization/beta/Assign"
  input: "^generator/decoder_4/batch_normalization/moving_mean/Assign"
  input: "^generator/decoder_4/batch_normalization/moving_variance/Assign"
  input: "^generator/decoder_3/conv2d_transpose/kernel/Assign"
  input: "^generator/decoder_3/conv2d_transpose/bias/Assign"
  input: "^generator/decoder_3/batch_normalization/gamma/Assign"
  input: "^generator/decoder_3/batch_normalization/beta/Assign"
  input: "^generator/decoder_3/batch_normalization/moving_mean/Assign"
  input: "^generator/decoder_3/batch_normalization/moving_variance/Assign"
  input: "^generator/decoder_2/conv2d_transpose/kernel/Assign"
  input: "^generator/decoder_2/conv2d_transpose/bias/Assign"
  input: "^generator/decoder_2/batch_normalization/gamma/Assign"
  input: "^generator/decoder_2/batch_normalization/beta/Assign"
  input: "^generator/decoder_2/batch_normalization/moving_mean/Assign"
  input: "^generator/decoder_2/batch_normalization/moving_variance/Assign"
  input: "^generator/decoder_1/conv2d_transpose/kernel/Assign"
  input: "^generator/decoder_1/conv2d_transpose/bias/Assign"
  input: "^discriminator/layer_1/conv2d/kernel/Assign"
  input: "^discriminator/layer_1/conv2d/bias/Assign"
  input: "^discriminator/layer_2/conv2d/kernel/Assign"
  input: "^discriminator/layer_2/conv2d/bias/Assign"
  input: "^discriminator/layer_2/batch_normalization/gamma/Assign"
  input: "^discriminator/layer_2/batch_normalization/beta/Assign"
  input: "^discriminator/layer_2/batch_normalization/moving_mean/Assign"
  input: "^discriminator/layer_2/batch_normalization/moving_variance/Assign"
  input: "^discriminator/layer_3/conv2d/kernel/Assign"
  input: "^discriminator/layer_3/conv2d/bias/Assign"
  input: "^discriminator/layer_3/batch_normalization/gamma/Assign"
  input: "^discriminator/layer_3/batch_normalization/beta/Assign"
  input: "^discriminator/layer_3/batch_normalization/moving_mean/Assign"
  input: "^discriminator/layer_3/batch_normalization/moving_variance/Assign"
  input: "^discriminator/layer_4/conv2d/kernel/Assign"
  input: "^discriminator/layer_4/conv2d/bias/Assign"
  input: "^discriminator/layer_4/batch_normalization/gamma/Assign"
  input: "^discriminator/layer_4/batch_normalization/beta/Assign"
  input: "^discriminator/layer_4/batch_normalization/moving_mean/Assign"
  input: "^discriminator/layer_4/batch_normalization/moving_variance/Assign"
  input: "^discriminator/layer_5/conv2d/kernel/Assign"
  input: "^discriminator/layer_5/conv2d/bias/Assign"
  input: "^discriminator_train/beta1_power/Assign"
  input: "^discriminator_train/beta2_power/Assign"
  input: "^discriminator/layer_1/conv2d/kernel/Adam/Assign"
  input: "^discriminator/layer_1/conv2d/kernel/Adam_1/Assign"
  input: "^discriminator/layer_1/conv2d/bias/Adam/Assign"
  input: "^discriminator/layer_1/conv2d/bias/Adam_1/Assign"
  input: "^discriminator/layer_2/conv2d/kernel/Adam/Assign"
  input: "^discriminator/layer_2/conv2d/kernel/Adam_1/Assign"
  input: "^discriminator/layer_2/conv2d/bias/Adam/Assign"
  input: "^discriminator/layer_2/conv2d/bias/Adam_1/Assign"
  input: "^discriminator/layer_2/batch_normalization/gamma/Adam/Assign"
  input: "^discriminator/layer_2/batch_normalization/gamma/Adam_1/Assign"
  input: "^discriminator/layer_2/batch_normalization/beta/Adam/Assign"
  input: "^discriminator/layer_2/batch_normalization/beta/Adam_1/Assign"
  input: "^discriminator/layer_3/conv2d/kernel/Adam/Assign"
  input: "^discriminator/layer_3/conv2d/kernel/Adam_1/Assign"
  input: "^discriminator/layer_3/conv2d/bias/Adam/Assign"
  input: "^discriminator/layer_3/conv2d/bias/Adam_1/Assign"
  input: "^discriminator/layer_3/batch_normalization/gamma/Adam/Assign"
  input: "^discriminator/layer_3/batch_normalization/gamma/Adam_1/Assign"
  input: "^discriminator/layer_3/batch_normalization/beta/Adam/Assign"
  input: "^discriminator/layer_3/batch_normalization/beta/Adam_1/Assign"
  input: "^discriminator/layer_4/conv2d/kernel/Adam/Assign"
  input: "^discriminator/layer_4/conv2d/kernel/Adam_1/Assign"
  input: "^discriminator/layer_4/conv2d/bias/Adam/Assign"
  input: "^discriminator/layer_4/conv2d/bias/Adam_1/Assign"
  input: "^discriminator/layer_4/batch_normalization/gamma/Adam/Assign"
  input: "^discriminator/layer_4/batch_normalization/gamma/Adam_1/Assign"
  input: "^discriminator/layer_4/batch_normalization/beta/Adam/Assign"
  input: "^discriminator/layer_4/batch_normalization/beta/Adam_1/Assign"
  input: "^discriminator/layer_5/conv2d/kernel/Adam/Assign"
  input: "^discriminator/layer_5/conv2d/kernel/Adam_1/Assign"
  input: "^discriminator/layer_5/conv2d/bias/Adam/Assign"
  input: "^discriminator/layer_5/conv2d/bias/Adam_1/Assign"
  input: "^generator_train/beta1_power/Assign"
  input: "^generator_train/beta2_power/Assign"
  input: "^generator/encoder_1/conv2d/kernel/Adam/Assign"
  input: "^generator/encoder_1/conv2d/kernel/Adam_1/Assign"
  input: "^generator/encoder_1/conv2d/bias/Adam/Assign"
  input: "^generator/encoder_1/conv2d/bias/Adam_1/Assign"
  input: "^generator/encoder_2/conv2d/kernel/Adam/Assign"
  input: "^generator/encoder_2/conv2d/kernel/Adam_1/Assign"
  input: "^generator/encoder_2/conv2d/bias/Adam/Assign"
  input: "^generator/encoder_2/conv2d/bias/Adam_1/Assign"
  input: "^generator/encoder_2/batch_normalization/gamma/Adam/Assign"
  input: "^generator/encoder_2/batch_normalization/gamma/Adam_1/Assign"
  input: "^generator/encoder_2/batch_normalization/beta/Adam/Assign"
  input: "^generator/encoder_2/batch_normalization/beta/Adam_1/Assign"
  input: "^generator/encoder_3/conv2d/kernel/Adam/Assign"
  input: "^generator/encoder_3/conv2d/kernel/Adam_1/Assign"
  input: "^generator/encoder_3/conv2d/bias/Adam/Assign"
  input: "^generator/encoder_3/conv2d/bias/Adam_1/Assign"
  input: "^generator/encoder_3/batch_normalization/gamma/Adam/Assign"
  input: "^generator/encoder_3/batch_normalization/gamma/Adam_1/Assign"
  input: "^generator/encoder_3/batch_normalization/beta/Adam/Assign"
  input: "^generator/encoder_3/batch_normalization/beta/Adam_1/Assign"
  input: "^generator/encoder_4/conv2d/kernel/Adam/Assign"
  input: "^generator/encoder_4/conv2d/kernel/Adam_1/Assign"
  input: "^generator/encoder_4/conv2d/bias/Adam/Assign"
  input: "^generator/encoder_4/conv2d/bias/Adam_1/Assign"
  input: "^generator/encoder_4/batch_normalization/gamma/Adam/Assign"
  input: "^generator/encoder_4/batch_normalization/gamma/Adam_1/Assign"
  input: "^generator/encoder_4/batch_normalization/beta/Adam/Assign"
  input: "^generator/encoder_4/batch_normalization/beta/Adam_1/Assign"
  input: "^generator/encoder_5/conv2d/kernel/Adam/Assign"
  input: "^generator/encoder_5/conv2d/kernel/Adam_1/Assign"
  input: "^generator/encoder_5/conv2d/bias/Adam/Assign"
  input: "^generator/encoder_5/conv2d/bias/Adam_1/Assign"
  input: "^generator/encoder_5/batch_normalization/gamma/Adam/Assign"
  input: "^generator/encoder_5/batch_normalization/gamma/Adam_1/Assign"
  input: "^generator/encoder_5/batch_normalization/beta/Adam/Assign"
  input: "^generator/encoder_5/batch_normalization/beta/Adam_1/Assign"
  input: "^generator/encoder_6/conv2d/kernel/Adam/Assign"
  input: "^generator/encoder_6/conv2d/kernel/Adam_1/Assign"
  input: "^generator/encoder_6/conv2d/bias/Adam/Assign"
  input: "^generator/encoder_6/conv2d/bias/Adam_1/Assign"
  input: "^generator/encoder_6/batch_normalization/gamma/Adam/Assign"
  input: "^generator/encoder_6/batch_normalization/gamma/Adam_1/Assign"
  input: "^generator/encoder_6/batch_normalization/beta/Adam/Assign"
  input: "^generator/encoder_6/batch_normalization/beta/Adam_1/Assign"
  input: "^generator/encoder_7/conv2d/kernel/Adam/Assign"
  input: "^generator/encoder_7/conv2d/kernel/Adam_1/Assign"
  input: "^generator/encoder_7/conv2d/bias/Adam/Assign"
  input: "^generator/encoder_7/conv2d/bias/Adam_1/Assign"
  input: "^generator/encoder_7/batch_normalization/gamma/Adam/Assign"
  input: "^generator/encoder_7/batch_normalization/gamma/Adam_1/Assign"
  input: "^generator/encoder_7/batch_normalization/beta/Adam/Assign"
  input: "^generator/encoder_7/batch_normalization/beta/Adam_1/Assign"
  input: "^generator/encoder_8/conv2d/kernel/Adam/Assign"
  input: "^generator/encoder_8/conv2d/kernel/Adam_1/Assign"
  input: "^generator/encoder_8/conv2d/bias/Adam/Assign"
  input: "^generator/encoder_8/conv2d/bias/Adam_1/Assign"
  input: "^generator/encoder_8/batch_normalization/gamma/Adam/Assign"
  input: "^generator/encoder_8/batch_normalization/gamma/Adam_1/Assign"
  input: "^generator/encoder_8/batch_normalization/beta/Adam/Assign"
  input: "^generator/encoder_8/batch_normalization/beta/Adam_1/Assign"
  input: "^generator/decoder_8/conv2d_transpose/kernel/Adam/Assign"
  input: "^generator/decoder_8/conv2d_transpose/kernel/Adam_1/Assign"
  input: "^generator/decoder_8/conv2d_transpose/bias/Adam/Assign"
  input: "^generator/decoder_8/conv2d_transpose/bias/Adam_1/Assign"
  input: "^generator/decoder_8/batch_normalization/gamma/Adam/Assign"
  input: "^generator/decoder_8/batch_normalization/gamma/Adam_1/Assign"
  input: "^generator/decoder_8/batch_normalization/beta/Adam/Assign"
  input: "^generator/decoder_8/batch_normalization/beta/Adam_1/Assign"
  input: "^generator/decoder_7/conv2d_transpose/kernel/Adam/Assign"
  input: "^generator/decoder_7/conv2d_transpose/kernel/Adam_1/Assign"
  input: "^generator/decoder_7/conv2d_transpose/bias/Adam/Assign"
  input: "^generator/decoder_7/conv2d_transpose/bias/Adam_1/Assign"
  input: "^generator/decoder_7/batch_normalization/gamma/Adam/Assign"
  input: "^generator/decoder_7/batch_normalization/gamma/Adam_1/Assign"
  input: "^generator/decoder_7/batch_normalization/beta/Adam/Assign"
  input: "^generator/decoder_7/batch_normalization/beta/Adam_1/Assign"
  input: "^generator/decoder_6/conv2d_transpose/kernel/Adam/Assign"
  input: "^generator/decoder_6/conv2d_transpose/kernel/Adam_1/Assign"
  input: "^generator/decoder_6/conv2d_transpose/bias/Adam/Assign"
  input: "^generator/decoder_6/conv2d_transpose/bias/Adam_1/Assign"
  input: "^generator/decoder_6/batch_normalization/gamma/Adam/Assign"
  input: "^generator/decoder_6/batch_normalization/gamma/Adam_1/Assign"
  input: "^generator/decoder_6/batch_normalization/beta/Adam/Assign"
  input: "^generator/decoder_6/batch_normalization/beta/Adam_1/Assign"
  input: "^generator/decoder_5/conv2d_transpose/kernel/Adam/Assign"
  input: "^generator/decoder_5/conv2d_transpose/kernel/Adam_1/Assign"
  input: "^generator/decoder_5/conv2d_transpose/bias/Adam/Assign"
  input: "^generator/decoder_5/conv2d_transpose/bias/Adam_1/Assign"
  input: "^generator/decoder_5/batch_normalization/gamma/Adam/Assign"
  input: "^generator/decoder_5/batch_normalization/gamma/Adam_1/Assign"
  input: "^generator/decoder_5/batch_normalization/beta/Adam/Assign"
  input: "^generator/decoder_5/batch_normalization/beta/Adam_1/Assign"
  input: "^generator/decoder_4/conv2d_transpose/kernel/Adam/Assign"
  input: "^generator/decoder_4/conv2d_transpose/kernel/Adam_1/Assign"
  input: "^generator/decoder_4/conv2d_transpose/bias/Adam/Assign"
  input: "^generator/decoder_4/conv2d_transpose/bias/Adam_1/Assign"
  input: "^generator/decoder_4/batch_normalization/gamma/Adam/Assign"
  input: "^generator/decoder_4/batch_normalization/gamma/Adam_1/Assign"
  input: "^generator/decoder_4/batch_normalization/beta/Adam/Assign"
  input: "^generator/decoder_4/batch_normalization/beta/Adam_1/Assign"
  input: "^generator/decoder_3/conv2d_transpose/kernel/Adam/Assign"
  input: "^generator/decoder_3/conv2d_transpose/kernel/Adam_1/Assign"
  input: "^generator/decoder_3/conv2d_transpose/bias/Adam/Assign"
  input: "^generator/decoder_3/conv2d_transpose/bias/Adam_1/Assign"
  input: "^generator/decoder_3/batch_normalization/gamma/Adam/Assign"
  input: "^generator/decoder_3/batch_normalization/gamma/Adam_1/Assign"
  input: "^generator/decoder_3/batch_normalization/beta/Adam/Assign"
  input: "^generator/decoder_3/batch_normalization/beta/Adam_1/Assign"
  input: "^generator/decoder_2/conv2d_transpose/kernel/Adam/Assign"
  input: "^generator/decoder_2/conv2d_transpose/kernel/Adam_1/Assign"
  input: "^generator/decoder_2/conv2d_transpose/bias/Adam/Assign"
  input: "^generator/decoder_2/conv2d_transpose/bias/Adam_1/Assign"
  input: "^generator/decoder_2/batch_normalization/gamma/Adam/Assign"
  input: "^generator/decoder_2/batch_normalization/gamma/Adam_1/Assign"
  input: "^generator/decoder_2/batch_normalization/beta/Adam/Assign"
  input: "^generator/decoder_2/batch_normalization/beta/Adam_1/Assign"
  input: "^generator/decoder_1/conv2d_transpose/kernel/Adam/Assign"
  input: "^generator/decoder_1/conv2d_transpose/kernel/Adam_1/Assign"
  input: "^generator/decoder_1/conv2d_transpose/bias/Adam/Assign"
  input: "^generator/decoder_1/conv2d_transpose/bias/Adam_1/Assign"
  input: "^discriminator_loss/Mean/ExponentialMovingAverage/Assign"
  input: "^generator_loss/Mean/ExponentialMovingAverage/Assign"
  input: "^generator_loss/Mean_1/ExponentialMovingAverage/Assign"
  input: "^global_step/Assign"
}
node {
  name: "init_1"
  op: "NoOp"
}
node {
  name: "init_all_tables"
  op: "NoOp"
}
node {
  name: "group_deps_1"
  op: "NoOp"
  input: "^init_1"
  input: "^init_all_tables"
}
node {
  name: "Merge/MergeSummary"
  op: "MergeSummary"
  input: "load_images/input_producer/fraction_of_32_full"
  input: "batch/fraction_of_32_full"
  input: "inputs_summary/inputs"
  input: "targets_summary/targets"
  input: "outputs_summary/outputs"
  input: "predict_real_summary/predict_real"
  input: "predict_fake_summary/predict_fake"
  input: "discriminator_loss_1"
  input: "generator_loss_GAN"
  input: "generator_loss_L1"
  input: "generator/encoder_1/conv2d/kernel/values"
  input: "generator/encoder_1/conv2d/bias/values"
  input: "generator/encoder_2/conv2d/kernel/values"
  input: "generator/encoder_2/conv2d/bias/values"
  input: "generator/encoder_2/batch_normalization/gamma/values"
  input: "generator/encoder_2/batch_normalization/beta/values"
  input: "generator/encoder_3/conv2d/kernel/values"
  input: "generator/encoder_3/conv2d/bias/values"
  input: "generator/encoder_3/batch_normalization/gamma/values"
  input: "generator/encoder_3/batch_normalization/beta/values"
  input: "generator/encoder_4/conv2d/kernel/values"
  input: "generator/encoder_4/conv2d/bias/values"
  input: "generator/encoder_4/batch_normalization/gamma/values"
  input: "generator/encoder_4/batch_normalization/beta/values"
  input: "generator/encoder_5/conv2d/kernel/values"
  input: "generator/encoder_5/conv2d/bias/values"
  input: "generator/encoder_5/batch_normalization/gamma/values"
  input: "generator/encoder_5/batch_normalization/beta/values"
  input: "generator/encoder_6/conv2d/kernel/values"
  input: "generator/encoder_6/conv2d/bias/values"
  input: "generator/encoder_6/batch_normalization/gamma/values"
  input: "generator/encoder_6/batch_normalization/beta/values"
  input: "generator/encoder_7/conv2d/kernel/values"
  input: "generator/encoder_7/conv2d/bias/values"
  input: "generator/encoder_7/batch_normalization/gamma/values"
  input: "generator/encoder_7/batch_normalization/beta/values"
  input: "generator/encoder_8/conv2d/kernel/values"
  input: "generator/encoder_8/conv2d/bias/values"
  input: "generator/encoder_8/batch_normalization/gamma/values"
  input: "generator/encoder_8/batch_normalization/beta/values"
  input: "generator/decoder_8/conv2d_transpose/kernel/values"
  input: "generator/decoder_8/conv2d_transpose/bias/values"
  input: "generator/decoder_8/batch_normalization/gamma/values"
  input: "generator/decoder_8/batch_normalization/beta/values"
  input: "generator/decoder_7/conv2d_transpose/kernel/values"
  input: "generator/decoder_7/conv2d_transpose/bias/values"
  input: "generator/decoder_7/batch_normalization/gamma/values"
  input: "generator/decoder_7/batch_normalization/beta/values"
  input: "generator/decoder_6/conv2d_transpose/kernel/values"
  input: "generator/decoder_6/conv2d_transpose/bias/values"
  input: "generator/decoder_6/batch_normalization/gamma/values"
  input: "generator/decoder_6/batch_normalization/beta/values"
  input: "generator/decoder_5/conv2d_transpose/kernel/values"
  input: "generator/decoder_5/conv2d_transpose/bias/values"
  input: "generator/decoder_5/batch_normalization/gamma/values"
  input: "generator/decoder_5/batch_normalization/beta/values"
  input: "generator/decoder_4/conv2d_transpose/kernel/values"
  input: "generator/decoder_4/conv2d_transpose/bias/values"
  input: "generator/decoder_4/batch_normalization/gamma/values"
  input: "generator/decoder_4/batch_normalization/beta/values"
  input: "generator/decoder_3/conv2d_transpose/kernel/values"
  input: "generator/decoder_3/conv2d_transpose/bias/values"
  input: "generator/decoder_3/batch_normalization/gamma/values"
  input: "generator/decoder_3/batch_normalization/beta/values"
  input: "generator/decoder_2/conv2d_transpose/kernel/values"
  input: "generator/decoder_2/conv2d_transpose/bias/values"
  input: "generator/decoder_2/batch_normalization/gamma/values"
  input: "generator/decoder_2/batch_normalization/beta/values"
  input: "generator/decoder_1/conv2d_transpose/kernel/values"
  input: "generator/decoder_1/conv2d_transpose/bias/values"
  input: "discriminator/layer_1/conv2d/kernel/values"
  input: "discriminator/layer_1/conv2d/bias/values"
  input: "discriminator/layer_2/conv2d/kernel/values"
  input: "discriminator/layer_2/conv2d/bias/values"
  input: "discriminator/layer_2/batch_normalization/gamma/values"
  input: "discriminator/layer_2/batch_normalization/beta/values"
  input: "discriminator/layer_3/conv2d/kernel/values"
  input: "discriminator/layer_3/conv2d/bias/values"
  input: "discriminator/layer_3/batch_normalization/gamma/values"
  input: "discriminator/layer_3/batch_normalization/beta/values"
  input: "discriminator/layer_4/conv2d/kernel/values"
  input: "discriminator/layer_4/conv2d/bias/values"
  input: "discriminator/layer_4/batch_normalization/gamma/values"
  input: "discriminator/layer_4/batch_normalization/beta/values"
  input: "discriminator/layer_5/conv2d/kernel/values"
  input: "discriminator/layer_5/conv2d/bias/values"
  input: "discriminator/layer_1/conv2d/kernel/gradients"
  input: "discriminator/layer_1/conv2d/bias/gradients"
  input: "discriminator/layer_2/conv2d/kernel/gradients"
  input: "discriminator/layer_2/conv2d/bias/gradients"
  input: "discriminator/layer_2/batch_normalization/gamma/gradients"
  input: "discriminator/layer_2/batch_normalization/beta/gradients"
  input: "discriminator/layer_3/conv2d/kernel/gradients"
  input: "discriminator/layer_3/conv2d/bias/gradients"
  input: "discriminator/layer_3/batch_normalization/gamma/gradients"
  input: "discriminator/layer_3/batch_normalization/beta/gradients"
  input: "discriminator/layer_4/conv2d/kernel/gradients"
  input: "discriminator/layer_4/conv2d/bias/gradients"
  input: "discriminator/layer_4/batch_normalization/gamma/gradients"
  input: "discriminator/layer_4/batch_normalization/beta/gradients"
  input: "discriminator/layer_5/conv2d/kernel/gradients"
  input: "discriminator/layer_5/conv2d/bias/gradients"
  input: "generator/encoder_1/conv2d/kernel/gradients"
  input: "generator/encoder_1/conv2d/bias/gradients"
  input: "generator/encoder_2/conv2d/kernel/gradients"
  input: "generator/encoder_2/conv2d/bias/gradients"
  input: "generator/encoder_2/batch_normalization/gamma/gradients"
  input: "generator/encoder_2/batch_normalization/beta/gradients"
  input: "generator/encoder_3/conv2d/kernel/gradients"
  input: "generator/encoder_3/conv2d/bias/gradients"
  input: "generator/encoder_3/batch_normalization/gamma/gradients"
  input: "generator/encoder_3/batch_normalization/beta/gradients"
  input: "generator/encoder_4/conv2d/kernel/gradients"
  input: "generator/encoder_4/conv2d/bias/gradients"
  input: "generator/encoder_4/batch_normalization/gamma/gradients"
  input: "generator/encoder_4/batch_normalization/beta/gradients"
  input: "generator/encoder_5/conv2d/kernel/gradients"
  input: "generator/encoder_5/conv2d/bias/gradients"
  input: "generator/encoder_5/batch_normalization/gamma/gradients"
  input: "generator/encoder_5/batch_normalization/beta/gradients"
  input: "generator/encoder_6/conv2d/kernel/gradients"
  input: "generator/encoder_6/conv2d/bias/gradients"
  input: "generator/encoder_6/batch_normalization/gamma/gradients"
  input: "generator/encoder_6/batch_normalization/beta/gradients"
  input: "generator/encoder_7/conv2d/kernel/gradients"
  input: "generator/encoder_7/conv2d/bias/gradients"
  input: "generator/encoder_7/batch_normalization/gamma/gradients"
  input: "generator/encoder_7/batch_normalization/beta/gradients"
  input: "generator/encoder_8/conv2d/kernel/gradients"
  input: "generator/encoder_8/conv2d/bias/gradients"
  input: "generator/encoder_8/batch_normalization/gamma/gradients"
  input: "generator/encoder_8/batch_normalization/beta/gradients"
  input: "generator/decoder_8/conv2d_transpose/kernel/gradients"
  input: "generator/decoder_8/conv2d_transpose/bias/gradients"
  input: "generator/decoder_8/batch_normalization/gamma/gradients"
  input: "generator/decoder_8/batch_normalization/beta/gradients"
  input: "generator/decoder_7/conv2d_transpose/kernel/gradients"
  input: "generator/decoder_7/conv2d_transpose/bias/gradients"
  input: "generator/decoder_7/batch_normalization/gamma/gradients"
  input: "generator/decoder_7/batch_normalization/beta/gradients"
  input: "generator/decoder_6/conv2d_transpose/kernel/gradients"
  input: "generator/decoder_6/conv2d_transpose/bias/gradients"
  input: "generator/decoder_6/batch_normalization/gamma/gradients"
  input: "generator/decoder_6/batch_normalization/beta/gradients"
  input: "generator/decoder_5/conv2d_transpose/kernel/gradients"
  input: "generator/decoder_5/conv2d_transpose/bias/gradients"
  input: "generator/decoder_5/batch_normalization/gamma/gradients"
  input: "generator/decoder_5/batch_normalization/beta/gradients"
  input: "generator/decoder_4/conv2d_transpose/kernel/gradients"
  input: "generator/decoder_4/conv2d_transpose/bias/gradients"
  input: "generator/decoder_4/batch_normalization/gamma/gradients"
  input: "generator/decoder_4/batch_normalization/beta/gradients"
  input: "generator/decoder_3/conv2d_transpose/kernel/gradients"
  input: "generator/decoder_3/conv2d_transpose/bias/gradients"
  input: "generator/decoder_3/batch_normalization/gamma/gradients"
  input: "generator/decoder_3/batch_normalization/beta/gradients"
  input: "generator/decoder_2/conv2d_transpose/kernel/gradients"
  input: "generator/decoder_2/conv2d_transpose/bias/gradients"
  input: "generator/decoder_2/batch_normalization/gamma/gradients"
  input: "generator/decoder_2/batch_normalization/beta/gradients"
  input: "generator/decoder_1/conv2d_transpose/kernel/gradients"
  input: "generator/decoder_1/conv2d_transpose/bias/gradients"
  attr {
    key: "N"
    value {
      i: 162
    }
  }
  attr {
    key: "_output_shapes"
    value {
      list {
        shape {
        }
      }
    }
  }
}
versions {
  producer: 24
}
